{
  "transform_params" : {
    "src" : {
      "bias_a" : 0,
      "bias_g" : 0,
      "bias_r" : 0,
      "bias_b" : 0,
      "center_mean" : 0,
      "is_network_bgr" : 0,
      "scale" : 0.0039215688593685627
    }
  },
  "properties" : {

  },
  "analyses" : {

  },
  "format_version" : 200,
  "storage" : "model.espresso.weights",
  "layers" : [
    {
      "bottom" : "src",
      "target_size_w" : 480,
      "spatial_scale" : 1,
      "weights" : {

      },
      "grid_sampling_mode" : 0,
      "debug_info" : "tensor.1",
      "target_size_h" : 270,
      "top" : "tensor.1",
      "type" : "crop_and_resize",
      "name" : "tensor.1",
      "crop_index_mode" : 0
    },
    {
      "top" : "mean",
      "w" : 1,
      "h" : 1,
      "name" : "mean",
      "nd_rank" : 3,
      "type" : "load_constant",
      "k" : 3,
      "bottom" : "",
      "debug_info" : "mean",
      "n" : 1,
      "weights" : {

      },
      "constant_blob" : 1
    },
    {
      "alpha" : -1,
      "bottom" : "mean",
      "weights" : {

      },
      "mode" : 6,
      "debug_info" : "_neg_y_tensor",
      "top" : "_neg_y_tensor",
      "type" : "activation",
      "name" : "_neg_y_tensor",
      "beta" : 0
    },
    {
      "bottom" : "tensor.1,_neg_y_tensor",
      "alpha" : 1,
      "operation" : 0,
      "weights" : {

      },
      "fused_relu" : 0,
      "debug_info" : "tensor",
      "top" : "tensor",
      "type" : "elementwise",
      "name" : "tensor",
      "beta" : 0
    },
    {
      "top" : "_inversed_input.2_y_0",
      "w" : 1,
      "h" : 1,
      "name" : "_inversed_input.2_y_0",
      "nd_rank" : 3,
      "type" : "load_constant",
      "k" : 3,
      "bottom" : "",
      "debug_info" : "_inversed_input.2_y_0",
      "n" : 1,
      "weights" : {

      },
      "constant_blob" : 3
    },
    {
      "bottom" : "tensor,_inversed_input.2_y_0",
      "alpha" : 1,
      "operation" : 1,
      "weights" : {

      },
      "fused_relu" : 0,
      "debug_info" : "_inversed_input.2",
      "top" : "_inversed_input.2",
      "type" : "elementwise",
      "name" : "_inversed_input.2",
      "beta" : 0
    },
    {
      "pad_r" : 1,
      "fused_relu" : 0,
      "fused_tanh" : 0,
      "debug_info" : "input.4",
      "pad_fill_mode" : 0,
      "pad_b" : 1,
      "pad_l" : 1,
      "top" : "input.4",
      "K" : 3,
      "blob_biases" : 5,
      "stride_x" : 2,
      "name" : "input.4",
      "has_batch_norm" : 0,
      "type" : "convolution",
      "n_groups" : 1,
      "pad_t" : 1,
      "stride_y" : 2,
      "has_biases" : 1,
      "C" : 16,
      "bottom" : "_inversed_input.2",
      "weights" : {

      },
      "Nx" : 3,
      "pad_mode" : 0,
      "pad_value" : 0,
      "Ny" : 3,
      "n_parallel" : 1,
      "blob_weights_f16" : 7
    },
    {
      "alpha" : 0.1666666716337204,
      "bottom" : "input.4",
      "weights" : {

      },
      "mode" : 7,
      "debug_info" : "sigmoid_hard_0",
      "top" : "sigmoid_hard_0",
      "type" : "activation",
      "name" : "sigmoid_hard_0",
      "beta" : 0.5
    },
    {
      "bottom" : "input.4,sigmoid_hard_0",
      "alpha" : 1,
      "operation" : 1,
      "weights" : {

      },
      "fused_relu" : 0,
      "debug_info" : "input.5",
      "top" : "input.5",
      "type" : "elementwise",
      "name" : "input.5",
      "beta" : 0
    },
    {
      "pad_r" : 1,
      "fused_relu" : 1,
      "fused_tanh" : 0,
      "debug_info" : "input.7",
      "pad_fill_mode" : 0,
      "pad_b" : 1,
      "pad_l" : 1,
      "top" : "input.8",
      "K" : 16,
      "blob_biases" : 9,
      "name" : "input.7",
      "has_batch_norm" : 0,
      "type" : "convolution",
      "n_groups" : 16,
      "pad_t" : 1,
      "has_biases" : 1,
      "C" : 16,
      "bottom" : "input.5",
      "weights" : {

      },
      "Nx" : 3,
      "pad_mode" : 0,
      "pad_value" : 0,
      "Ny" : 3,
      "n_parallel" : 1,
      "blob_weights_f16" : 11
    },
    {
      "pad_r" : 0,
      "fused_relu" : 0,
      "fused_tanh" : 0,
      "debug_info" : "result.1",
      "pad_fill_mode" : 0,
      "pad_b" : 0,
      "pad_l" : 0,
      "top" : "result.1",
      "K" : 16,
      "blob_biases" : 13,
      "name" : "result.1",
      "has_batch_norm" : 0,
      "type" : "convolution",
      "n_groups" : 1,
      "pad_t" : 0,
      "has_biases" : 1,
      "C" : 16,
      "bottom" : "input.8",
      "weights" : {

      },
      "Nx" : 1,
      "pad_mode" : 0,
      "pad_value" : 0,
      "Ny" : 1,
      "n_parallel" : 1,
      "blob_weights_f16" : 15
    },
    {
      "bottom" : "input.5,result.1",
      "alpha" : 1,
      "operation" : 0,
      "weights" : {

      },
      "fused_relu" : 0,
      "debug_info" : "input.10",
      "top" : "input.10",
      "type" : "elementwise",
      "name" : "input.10",
      "beta" : 0
    },
    {
      "pad_r" : 0,
      "fused_relu" : 1,
      "fused_tanh" : 0,
      "debug_info" : "input.12",
      "pad_fill_mode" : 0,
      "pad_b" : 0,
      "pad_l" : 0,
      "top" : "input.13",
      "K" : 16,
      "blob_biases" : 17,
      "name" : "input.12",
      "has_batch_norm" : 0,
      "type" : "convolution",
      "n_groups" : 1,
      "pad_t" : 0,
      "has_biases" : 1,
      "C" : 64,
      "bottom" : "input.10",
      "weights" : {

      },
      "Nx" : 1,
      "pad_mode" : 0,
      "pad_value" : 0,
      "Ny" : 1,
      "n_parallel" : 1,
      "blob_weights_f16" : 19
    },
    {
      "pad_r" : 1,
      "fused_relu" : 1,
      "fused_tanh" : 0,
      "debug_info" : "input.15",
      "pad_fill_mode" : 0,
      "pad_b" : 1,
      "pad_l" : 1,
      "top" : "input.16",
      "K" : 64,
      "blob_biases" : 21,
      "stride_x" : 2,
      "name" : "input.15",
      "has_batch_norm" : 0,
      "type" : "convolution",
      "n_groups" : 64,
      "pad_t" : 1,
      "stride_y" : 2,
      "has_biases" : 1,
      "C" : 64,
      "bottom" : "input.13",
      "weights" : {

      },
      "Nx" : 3,
      "pad_mode" : 0,
      "pad_value" : 0,
      "Ny" : 3,
      "n_parallel" : 1,
      "blob_weights_f16" : 23
    },
    {
      "pad_r" : 0,
      "fused_relu" : 0,
      "fused_tanh" : 0,
      "debug_info" : "input.18",
      "pad_fill_mode" : 0,
      "pad_b" : 0,
      "pad_l" : 0,
      "top" : "input.18",
      "K" : 64,
      "blob_biases" : 25,
      "name" : "input.18",
      "has_batch_norm" : 0,
      "type" : "convolution",
      "n_groups" : 1,
      "pad_t" : 0,
      "has_biases" : 1,
      "C" : 24,
      "bottom" : "input.16",
      "weights" : {

      },
      "Nx" : 1,
      "pad_mode" : 0,
      "pad_value" : 0,
      "Ny" : 1,
      "n_parallel" : 1,
      "blob_weights_f16" : 27
    },
    {
      "pad_r" : 0,
      "fused_relu" : 1,
      "fused_tanh" : 0,
      "debug_info" : "input.20",
      "pad_fill_mode" : 0,
      "pad_b" : 0,
      "pad_l" : 0,
      "top" : "input.21",
      "K" : 24,
      "blob_biases" : 29,
      "name" : "input.20",
      "has_batch_norm" : 0,
      "type" : "convolution",
      "n_groups" : 1,
      "pad_t" : 0,
      "has_biases" : 1,
      "C" : 72,
      "bottom" : "input.18",
      "weights" : {

      },
      "Nx" : 1,
      "pad_mode" : 0,
      "pad_value" : 0,
      "Ny" : 1,
      "n_parallel" : 1,
      "blob_weights_f16" : 31
    },
    {
      "pad_r" : 1,
      "fused_relu" : 1,
      "fused_tanh" : 0,
      "debug_info" : "input.23",
      "pad_fill_mode" : 0,
      "pad_b" : 1,
      "pad_l" : 1,
      "top" : "input.24",
      "K" : 72,
      "blob_biases" : 33,
      "name" : "input.23",
      "has_batch_norm" : 0,
      "type" : "convolution",
      "n_groups" : 72,
      "pad_t" : 1,
      "has_biases" : 1,
      "C" : 72,
      "bottom" : "input.21",
      "weights" : {

      },
      "Nx" : 3,
      "pad_mode" : 0,
      "pad_value" : 0,
      "Ny" : 3,
      "n_parallel" : 1,
      "blob_weights_f16" : 35
    },
    {
      "pad_r" : 0,
      "fused_relu" : 0,
      "fused_tanh" : 0,
      "debug_info" : "result.2",
      "pad_fill_mode" : 0,
      "pad_b" : 0,
      "pad_l" : 0,
      "top" : "result.2",
      "K" : 72,
      "blob_biases" : 37,
      "name" : "result.2",
      "has_batch_norm" : 0,
      "type" : "convolution",
      "n_groups" : 1,
      "pad_t" : 0,
      "has_biases" : 1,
      "C" : 24,
      "bottom" : "input.24",
      "weights" : {

      },
      "Nx" : 1,
      "pad_mode" : 0,
      "pad_value" : 0,
      "Ny" : 1,
      "n_parallel" : 1,
      "blob_weights_f16" : 39
    },
    {
      "bottom" : "input.18,result.2",
      "alpha" : 1,
      "operation" : 0,
      "weights" : {

      },
      "fused_relu" : 0,
      "debug_info" : "input.26",
      "top" : "input.26",
      "type" : "elementwise",
      "name" : "input.26",
      "beta" : 0
    },
    {
      "pad_r" : 0,
      "fused_relu" : 1,
      "fused_tanh" : 0,
      "debug_info" : "input.28",
      "pad_fill_mode" : 0,
      "pad_b" : 0,
      "pad_l" : 0,
      "top" : "input.29",
      "K" : 24,
      "blob_biases" : 41,
      "name" : "input.28",
      "has_batch_norm" : 0,
      "type" : "convolution",
      "n_groups" : 1,
      "pad_t" : 0,
      "has_biases" : 1,
      "C" : 72,
      "bottom" : "input.26",
      "weights" : {

      },
      "Nx" : 1,
      "pad_mode" : 0,
      "pad_value" : 0,
      "Ny" : 1,
      "n_parallel" : 1,
      "blob_weights_f16" : 43
    },
    {
      "pad_r" : 2,
      "fused_relu" : 1,
      "fused_tanh" : 0,
      "debug_info" : "input.31",
      "pad_fill_mode" : 0,
      "pad_b" : 2,
      "pad_l" : 2,
      "top" : "input.32",
      "K" : 72,
      "blob_biases" : 45,
      "stride_x" : 2,
      "name" : "input.31",
      "has_batch_norm" : 0,
      "type" : "convolution",
      "n_groups" : 72,
      "pad_t" : 2,
      "stride_y" : 2,
      "has_biases" : 1,
      "C" : 72,
      "bottom" : "input.29",
      "weights" : {

      },
      "Nx" : 5,
      "pad_mode" : 0,
      "pad_value" : 0,
      "Ny" : 5,
      "n_parallel" : 1,
      "blob_weights_f16" : 47
    },
    {
      "pad_r" : 0,
      "debug_info" : "input.33",
      "pad_fill_mode" : 0,
      "pad_b" : 0,
      "pad_l" : 0,
      "size_x" : 60,
      "is_global" : 1,
      "top" : "input.33",
      "top_shape_style" : 0,
      "stride_x" : 1,
      "avg_or_max" : 0,
      "average_count_exclude_padding" : 1,
      "type" : "pool",
      "name" : "input.33",
      "pad_t" : 0,
      "stride_y" : 1,
      "bottom" : "input.32",
      "weights" : {

      },
      "pad_mode" : 2,
      "size_y" : 34,
      "pad_value" : 0
    },
    {
      "pad_r" : 0,
      "fused_relu" : 1,
      "fused_tanh" : 0,
      "debug_info" : "input.34",
      "pad_fill_mode" : 0,
      "pad_b" : 0,
      "pad_l" : 0,
      "top" : "input.35",
      "K" : 72,
      "blob_biases" : 49,
      "name" : "input.34",
      "has_batch_norm" : 0,
      "type" : "convolution",
      "n_groups" : 1,
      "pad_t" : 0,
      "has_biases" : 1,
      "C" : 24,
      "bottom" : "input.33",
      "weights" : {

      },
      "Nx" : 1,
      "pad_mode" : 0,
      "pad_value" : 0,
      "Ny" : 1,
      "n_parallel" : 1,
      "blob_weights_f16" : 51
    },
    {
      "pad_r" : 0,
      "fused_relu" : 0,
      "fused_tanh" : 0,
      "debug_info" : "input.36",
      "pad_fill_mode" : 0,
      "pad_b" : 0,
      "pad_l" : 0,
      "top" : "input.36",
      "K" : 24,
      "blob_biases" : 53,
      "name" : "input.36",
      "has_batch_norm" : 0,
      "type" : "convolution",
      "n_groups" : 1,
      "pad_t" : 0,
      "has_biases" : 1,
      "C" : 72,
      "bottom" : "input.35",
      "weights" : {

      },
      "Nx" : 1,
      "pad_mode" : 0,
      "pad_value" : 0,
      "Ny" : 1,
      "n_parallel" : 1,
      "blob_weights_f16" : 55
    },
    {
      "alpha" : 0.1666666716337204,
      "bottom" : "input.36",
      "weights" : {

      },
      "mode" : 7,
      "debug_info" : "scale.1",
      "top" : "scale.1",
      "type" : "activation",
      "name" : "scale.1",
      "beta" : 0.5
    },
    {
      "bottom" : "scale.1,input.32",
      "alpha" : 1,
      "operation" : 1,
      "weights" : {

      },
      "fused_relu" : 0,
      "debug_info" : "input.37",
      "nd_mode" : true,
      "top" : "input.37",
      "type" : "elementwise",
      "name" : "input.37",
      "beta" : 0
    },
    {
      "pad_r" : 0,
      "fused_relu" : 0,
      "fused_tanh" : 0,
      "debug_info" : "input.39",
      "pad_fill_mode" : 0,
      "pad_b" : 0,
      "pad_l" : 0,
      "top" : "input.39",
      "K" : 72,
      "blob_biases" : 57,
      "name" : "input.39",
      "has_batch_norm" : 0,
      "type" : "convolution",
      "n_groups" : 1,
      "pad_t" : 0,
      "has_biases" : 1,
      "C" : 40,
      "bottom" : "input.37",
      "weights" : {

      },
      "Nx" : 1,
      "pad_mode" : 0,
      "pad_value" : 0,
      "Ny" : 1,
      "n_parallel" : 1,
      "blob_weights_f16" : 59
    },
    {
      "pad_r" : 0,
      "fused_relu" : 1,
      "fused_tanh" : 0,
      "debug_info" : "input.41",
      "pad_fill_mode" : 0,
      "pad_b" : 0,
      "pad_l" : 0,
      "top" : "input.42",
      "K" : 40,
      "blob_biases" : 61,
      "name" : "input.41",
      "has_batch_norm" : 0,
      "type" : "convolution",
      "n_groups" : 1,
      "pad_t" : 0,
      "has_biases" : 1,
      "C" : 120,
      "bottom" : "input.39",
      "weights" : {

      },
      "Nx" : 1,
      "pad_mode" : 0,
      "pad_value" : 0,
      "Ny" : 1,
      "n_parallel" : 1,
      "blob_weights_f16" : 63
    },
    {
      "pad_r" : 2,
      "fused_relu" : 1,
      "fused_tanh" : 0,
      "debug_info" : "input.44",
      "pad_fill_mode" : 0,
      "pad_b" : 2,
      "pad_l" : 2,
      "top" : "input.45",
      "K" : 120,
      "blob_biases" : 65,
      "name" : "input.44",
      "has_batch_norm" : 0,
      "type" : "convolution",
      "n_groups" : 120,
      "pad_t" : 2,
      "has_biases" : 1,
      "C" : 120,
      "bottom" : "input.42",
      "weights" : {

      },
      "Nx" : 5,
      "pad_mode" : 0,
      "pad_value" : 0,
      "Ny" : 5,
      "n_parallel" : 1,
      "blob_weights_f16" : 67
    },
    {
      "pad_r" : 0,
      "debug_info" : "input.46",
      "pad_fill_mode" : 0,
      "pad_b" : 0,
      "pad_l" : 0,
      "size_x" : 60,
      "is_global" : 1,
      "top" : "input.46",
      "top_shape_style" : 0,
      "stride_x" : 1,
      "avg_or_max" : 0,
      "average_count_exclude_padding" : 1,
      "type" : "pool",
      "name" : "input.46",
      "pad_t" : 0,
      "stride_y" : 1,
      "bottom" : "input.45",
      "weights" : {

      },
      "pad_mode" : 2,
      "size_y" : 34,
      "pad_value" : 0
    },
    {
      "pad_r" : 0,
      "fused_relu" : 1,
      "fused_tanh" : 0,
      "debug_info" : "input.47",
      "pad_fill_mode" : 0,
      "pad_b" : 0,
      "pad_l" : 0,
      "top" : "input.48",
      "K" : 120,
      "blob_biases" : 69,
      "name" : "input.47",
      "has_batch_norm" : 0,
      "type" : "convolution",
      "n_groups" : 1,
      "pad_t" : 0,
      "has_biases" : 1,
      "C" : 32,
      "bottom" : "input.46",
      "weights" : {

      },
      "Nx" : 1,
      "pad_mode" : 0,
      "pad_value" : 0,
      "Ny" : 1,
      "n_parallel" : 1,
      "blob_weights_f16" : 71
    },
    {
      "pad_r" : 0,
      "fused_relu" : 0,
      "fused_tanh" : 0,
      "debug_info" : "input.49",
      "pad_fill_mode" : 0,
      "pad_b" : 0,
      "pad_l" : 0,
      "top" : "input.49",
      "K" : 32,
      "blob_biases" : 73,
      "name" : "input.49",
      "has_batch_norm" : 0,
      "type" : "convolution",
      "n_groups" : 1,
      "pad_t" : 0,
      "has_biases" : 1,
      "C" : 120,
      "bottom" : "input.48",
      "weights" : {

      },
      "Nx" : 1,
      "pad_mode" : 0,
      "pad_value" : 0,
      "Ny" : 1,
      "n_parallel" : 1,
      "blob_weights_f16" : 75
    },
    {
      "alpha" : 0.1666666716337204,
      "bottom" : "input.49",
      "weights" : {

      },
      "mode" : 7,
      "debug_info" : "scale.2",
      "top" : "scale.2",
      "type" : "activation",
      "name" : "scale.2",
      "beta" : 0.5
    },
    {
      "bottom" : "scale.2,input.45",
      "alpha" : 1,
      "operation" : 1,
      "weights" : {

      },
      "fused_relu" : 0,
      "debug_info" : "input.50",
      "nd_mode" : true,
      "top" : "input.50",
      "type" : "elementwise",
      "name" : "input.50",
      "beta" : 0
    },
    {
      "pad_r" : 0,
      "fused_relu" : 0,
      "fused_tanh" : 0,
      "debug_info" : "result.3",
      "pad_fill_mode" : 0,
      "pad_b" : 0,
      "pad_l" : 0,
      "top" : "result.3",
      "K" : 120,
      "blob_biases" : 77,
      "name" : "result.3",
      "has_batch_norm" : 0,
      "type" : "convolution",
      "n_groups" : 1,
      "pad_t" : 0,
      "has_biases" : 1,
      "C" : 40,
      "bottom" : "input.50",
      "weights" : {

      },
      "Nx" : 1,
      "pad_mode" : 0,
      "pad_value" : 0,
      "Ny" : 1,
      "n_parallel" : 1,
      "blob_weights_f16" : 79
    },
    {
      "bottom" : "result.3,input.39",
      "alpha" : 1,
      "operation" : 0,
      "weights" : {

      },
      "fused_relu" : 0,
      "debug_info" : "input.52",
      "nd_mode" : true,
      "top" : "input.52",
      "type" : "elementwise",
      "name" : "input.52",
      "beta" : 0
    },
    {
      "pad_r" : 0,
      "fused_relu" : 1,
      "fused_tanh" : 0,
      "debug_info" : "input.54",
      "pad_fill_mode" : 0,
      "pad_b" : 0,
      "pad_l" : 0,
      "top" : "input.55",
      "K" : 40,
      "blob_biases" : 81,
      "name" : "input.54",
      "has_batch_norm" : 0,
      "type" : "convolution",
      "n_groups" : 1,
      "pad_t" : 0,
      "has_biases" : 1,
      "C" : 120,
      "bottom" : "input.52",
      "weights" : {

      },
      "Nx" : 1,
      "pad_mode" : 0,
      "pad_value" : 0,
      "Ny" : 1,
      "n_parallel" : 1,
      "blob_weights_f16" : 83
    },
    {
      "pad_r" : 2,
      "fused_relu" : 1,
      "fused_tanh" : 0,
      "debug_info" : "input.57",
      "pad_fill_mode" : 0,
      "pad_b" : 2,
      "pad_l" : 2,
      "top" : "input.58",
      "K" : 120,
      "blob_biases" : 85,
      "name" : "input.57",
      "has_batch_norm" : 0,
      "type" : "convolution",
      "n_groups" : 120,
      "pad_t" : 2,
      "has_biases" : 1,
      "C" : 120,
      "bottom" : "input.55",
      "weights" : {

      },
      "Nx" : 5,
      "pad_mode" : 0,
      "pad_value" : 0,
      "Ny" : 5,
      "n_parallel" : 1,
      "blob_weights_f16" : 87
    },
    {
      "pad_r" : 0,
      "debug_info" : "input.59",
      "pad_fill_mode" : 0,
      "pad_b" : 0,
      "pad_l" : 0,
      "size_x" : 60,
      "is_global" : 1,
      "top" : "input.59",
      "top_shape_style" : 0,
      "stride_x" : 1,
      "avg_or_max" : 0,
      "average_count_exclude_padding" : 1,
      "type" : "pool",
      "name" : "input.59",
      "pad_t" : 0,
      "stride_y" : 1,
      "bottom" : "input.58",
      "weights" : {

      },
      "pad_mode" : 2,
      "size_y" : 34,
      "pad_value" : 0
    },
    {
      "pad_r" : 0,
      "fused_relu" : 1,
      "fused_tanh" : 0,
      "debug_info" : "input.60",
      "pad_fill_mode" : 0,
      "pad_b" : 0,
      "pad_l" : 0,
      "top" : "input.61",
      "K" : 120,
      "blob_biases" : 89,
      "name" : "input.60",
      "has_batch_norm" : 0,
      "type" : "convolution",
      "n_groups" : 1,
      "pad_t" : 0,
      "has_biases" : 1,
      "C" : 32,
      "bottom" : "input.59",
      "weights" : {

      },
      "Nx" : 1,
      "pad_mode" : 0,
      "pad_value" : 0,
      "Ny" : 1,
      "n_parallel" : 1,
      "blob_weights_f16" : 91
    },
    {
      "pad_r" : 0,
      "fused_relu" : 0,
      "fused_tanh" : 0,
      "debug_info" : "input.62",
      "pad_fill_mode" : 0,
      "pad_b" : 0,
      "pad_l" : 0,
      "top" : "input.62",
      "K" : 32,
      "blob_biases" : 93,
      "name" : "input.62",
      "has_batch_norm" : 0,
      "type" : "convolution",
      "n_groups" : 1,
      "pad_t" : 0,
      "has_biases" : 1,
      "C" : 120,
      "bottom" : "input.61",
      "weights" : {

      },
      "Nx" : 1,
      "pad_mode" : 0,
      "pad_value" : 0,
      "Ny" : 1,
      "n_parallel" : 1,
      "blob_weights_f16" : 95
    },
    {
      "alpha" : 0.1666666716337204,
      "bottom" : "input.62",
      "weights" : {

      },
      "mode" : 7,
      "debug_info" : "scale.3",
      "top" : "scale.3",
      "type" : "activation",
      "name" : "scale.3",
      "beta" : 0.5
    },
    {
      "bottom" : "scale.3,input.58",
      "alpha" : 1,
      "operation" : 1,
      "weights" : {

      },
      "fused_relu" : 0,
      "debug_info" : "input.63",
      "nd_mode" : true,
      "top" : "input.63",
      "type" : "elementwise",
      "name" : "input.63",
      "beta" : 0
    },
    {
      "pad_r" : 0,
      "fused_relu" : 0,
      "fused_tanh" : 0,
      "debug_info" : "result.4",
      "pad_fill_mode" : 0,
      "pad_b" : 0,
      "pad_l" : 0,
      "top" : "result.4",
      "K" : 120,
      "blob_biases" : 97,
      "name" : "result.4",
      "has_batch_norm" : 0,
      "type" : "convolution",
      "n_groups" : 1,
      "pad_t" : 0,
      "has_biases" : 1,
      "C" : 40,
      "bottom" : "input.63",
      "weights" : {

      },
      "Nx" : 1,
      "pad_mode" : 0,
      "pad_value" : 0,
      "Ny" : 1,
      "n_parallel" : 1,
      "blob_weights_f16" : 99
    },
    {
      "bottom" : "result.4,input.52",
      "alpha" : 1,
      "operation" : 0,
      "weights" : {

      },
      "fused_relu" : 0,
      "debug_info" : "input.65",
      "nd_mode" : true,
      "top" : "input.65",
      "type" : "elementwise",
      "name" : "input.65",
      "beta" : 0
    },
    {
      "pad_r" : 0,
      "fused_relu" : 0,
      "fused_tanh" : 0,
      "debug_info" : "input.67",
      "pad_fill_mode" : 0,
      "pad_b" : 0,
      "pad_l" : 0,
      "top" : "input.67",
      "K" : 40,
      "blob_biases" : 101,
      "name" : "input.67",
      "has_batch_norm" : 0,
      "type" : "convolution",
      "n_groups" : 1,
      "pad_t" : 0,
      "has_biases" : 1,
      "C" : 240,
      "bottom" : "input.65",
      "weights" : {

      },
      "Nx" : 1,
      "pad_mode" : 0,
      "pad_value" : 0,
      "Ny" : 1,
      "n_parallel" : 1,
      "blob_weights_f16" : 103
    },
    {
      "alpha" : 0.1666666716337204,
      "bottom" : "input.67",
      "weights" : {

      },
      "mode" : 7,
      "debug_info" : "sigmoid_hard_1",
      "top" : "sigmoid_hard_1",
      "type" : "activation",
      "name" : "sigmoid_hard_1",
      "beta" : 0.5
    },
    {
      "bottom" : "input.67,sigmoid_hard_1",
      "alpha" : 1,
      "operation" : 1,
      "weights" : {

      },
      "fused_relu" : 0,
      "debug_info" : "input.68",
      "top" : "input.68",
      "type" : "elementwise",
      "name" : "input.68",
      "beta" : 0
    },
    {
      "pad_r" : 1,
      "fused_relu" : 0,
      "fused_tanh" : 0,
      "debug_info" : "input.70",
      "pad_fill_mode" : 0,
      "pad_b" : 1,
      "pad_l" : 1,
      "top" : "input.70",
      "K" : 240,
      "blob_biases" : 105,
      "stride_x" : 2,
      "name" : "input.70",
      "has_batch_norm" : 0,
      "type" : "convolution",
      "n_groups" : 240,
      "pad_t" : 1,
      "stride_y" : 2,
      "has_biases" : 1,
      "C" : 240,
      "bottom" : "input.68",
      "weights" : {

      },
      "Nx" : 3,
      "pad_mode" : 0,
      "pad_value" : 0,
      "Ny" : 3,
      "n_parallel" : 1,
      "blob_weights_f16" : 107
    },
    {
      "alpha" : 0.1666666716337204,
      "bottom" : "input.70",
      "weights" : {

      },
      "mode" : 7,
      "debug_info" : "sigmoid_hard_2",
      "top" : "sigmoid_hard_2",
      "type" : "activation",
      "name" : "sigmoid_hard_2",
      "beta" : 0.5
    },
    {
      "bottom" : "input.70,sigmoid_hard_2",
      "alpha" : 1,
      "operation" : 1,
      "weights" : {

      },
      "fused_relu" : 0,
      "debug_info" : "input.71",
      "top" : "input.71",
      "type" : "elementwise",
      "name" : "input.71",
      "beta" : 0
    },
    {
      "pad_r" : 0,
      "fused_relu" : 0,
      "fused_tanh" : 0,
      "debug_info" : "input.73",
      "pad_fill_mode" : 0,
      "pad_b" : 0,
      "pad_l" : 0,
      "top" : "input.73",
      "K" : 240,
      "blob_biases" : 109,
      "name" : "input.73",
      "has_batch_norm" : 0,
      "type" : "convolution",
      "n_groups" : 1,
      "pad_t" : 0,
      "has_biases" : 1,
      "C" : 80,
      "bottom" : "input.71",
      "weights" : {

      },
      "Nx" : 1,
      "pad_mode" : 0,
      "pad_value" : 0,
      "Ny" : 1,
      "n_parallel" : 1,
      "blob_weights_f16" : 111
    },
    {
      "pad_r" : 0,
      "fused_relu" : 0,
      "fused_tanh" : 0,
      "debug_info" : "input.75",
      "pad_fill_mode" : 0,
      "pad_b" : 0,
      "pad_l" : 0,
      "top" : "input.75",
      "K" : 80,
      "blob_biases" : 113,
      "name" : "input.75",
      "has_batch_norm" : 0,
      "type" : "convolution",
      "n_groups" : 1,
      "pad_t" : 0,
      "has_biases" : 1,
      "C" : 200,
      "bottom" : "input.73",
      "weights" : {

      },
      "Nx" : 1,
      "pad_mode" : 0,
      "pad_value" : 0,
      "Ny" : 1,
      "n_parallel" : 1,
      "blob_weights_f16" : 115
    },
    {
      "alpha" : 0.1666666716337204,
      "bottom" : "input.75",
      "weights" : {

      },
      "mode" : 7,
      "debug_info" : "sigmoid_hard_3",
      "top" : "sigmoid_hard_3",
      "type" : "activation",
      "name" : "sigmoid_hard_3",
      "beta" : 0.5
    },
    {
      "bottom" : "input.75,sigmoid_hard_3",
      "alpha" : 1,
      "operation" : 1,
      "weights" : {

      },
      "fused_relu" : 0,
      "debug_info" : "input.76",
      "top" : "input.76",
      "type" : "elementwise",
      "name" : "input.76",
      "beta" : 0
    },
    {
      "pad_r" : 1,
      "fused_relu" : 0,
      "fused_tanh" : 0,
      "debug_info" : "input.78",
      "pad_fill_mode" : 0,
      "pad_b" : 1,
      "pad_l" : 1,
      "top" : "input.78",
      "K" : 200,
      "blob_biases" : 117,
      "name" : "input.78",
      "has_batch_norm" : 0,
      "type" : "convolution",
      "n_groups" : 200,
      "pad_t" : 1,
      "has_biases" : 1,
      "C" : 200,
      "bottom" : "input.76",
      "weights" : {

      },
      "Nx" : 3,
      "pad_mode" : 0,
      "pad_value" : 0,
      "Ny" : 3,
      "n_parallel" : 1,
      "blob_weights_f16" : 119
    },
    {
      "alpha" : 0.1666666716337204,
      "bottom" : "input.78",
      "weights" : {

      },
      "mode" : 7,
      "debug_info" : "sigmoid_hard_4",
      "top" : "sigmoid_hard_4",
      "type" : "activation",
      "name" : "sigmoid_hard_4",
      "beta" : 0.5
    },
    {
      "bottom" : "input.78,sigmoid_hard_4",
      "alpha" : 1,
      "operation" : 1,
      "weights" : {

      },
      "fused_relu" : 0,
      "debug_info" : "input.79",
      "top" : "input.79",
      "type" : "elementwise",
      "name" : "input.79",
      "beta" : 0
    },
    {
      "pad_r" : 0,
      "fused_relu" : 0,
      "fused_tanh" : 0,
      "debug_info" : "result.5",
      "pad_fill_mode" : 0,
      "pad_b" : 0,
      "pad_l" : 0,
      "top" : "result.5",
      "K" : 200,
      "blob_biases" : 121,
      "name" : "result.5",
      "has_batch_norm" : 0,
      "type" : "convolution",
      "n_groups" : 1,
      "pad_t" : 0,
      "has_biases" : 1,
      "C" : 80,
      "bottom" : "input.79",
      "weights" : {

      },
      "Nx" : 1,
      "pad_mode" : 0,
      "pad_value" : 0,
      "Ny" : 1,
      "n_parallel" : 1,
      "blob_weights_f16" : 123
    },
    {
      "bottom" : "result.5,input.73",
      "alpha" : 1,
      "operation" : 0,
      "weights" : {

      },
      "fused_relu" : 0,
      "debug_info" : "input.81",
      "nd_mode" : true,
      "top" : "input.81",
      "type" : "elementwise",
      "name" : "input.81",
      "beta" : 0
    },
    {
      "pad_r" : 0,
      "fused_relu" : 0,
      "fused_tanh" : 0,
      "debug_info" : "input.83",
      "pad_fill_mode" : 0,
      "pad_b" : 0,
      "pad_l" : 0,
      "top" : "input.83",
      "K" : 80,
      "blob_biases" : 125,
      "name" : "input.83",
      "has_batch_norm" : 0,
      "type" : "convolution",
      "n_groups" : 1,
      "pad_t" : 0,
      "has_biases" : 1,
      "C" : 184,
      "bottom" : "input.81",
      "weights" : {

      },
      "Nx" : 1,
      "pad_mode" : 0,
      "pad_value" : 0,
      "Ny" : 1,
      "n_parallel" : 1,
      "blob_weights_f16" : 127
    },
    {
      "alpha" : 0.1666666716337204,
      "bottom" : "input.83",
      "weights" : {

      },
      "mode" : 7,
      "debug_info" : "sigmoid_hard_5",
      "top" : "sigmoid_hard_5",
      "type" : "activation",
      "name" : "sigmoid_hard_5",
      "beta" : 0.5
    },
    {
      "bottom" : "input.83,sigmoid_hard_5",
      "alpha" : 1,
      "operation" : 1,
      "weights" : {

      },
      "fused_relu" : 0,
      "debug_info" : "input.84",
      "top" : "input.84",
      "type" : "elementwise",
      "name" : "input.84",
      "beta" : 0
    },
    {
      "pad_r" : 1,
      "fused_relu" : 0,
      "fused_tanh" : 0,
      "debug_info" : "input.86",
      "pad_fill_mode" : 0,
      "pad_b" : 1,
      "pad_l" : 1,
      "top" : "input.86",
      "K" : 184,
      "blob_biases" : 129,
      "name" : "input.86",
      "has_batch_norm" : 0,
      "type" : "convolution",
      "n_groups" : 184,
      "pad_t" : 1,
      "has_biases" : 1,
      "C" : 184,
      "bottom" : "input.84",
      "weights" : {

      },
      "Nx" : 3,
      "pad_mode" : 0,
      "pad_value" : 0,
      "Ny" : 3,
      "n_parallel" : 1,
      "blob_weights_f16" : 131
    },
    {
      "alpha" : 0.1666666716337204,
      "bottom" : "input.86",
      "weights" : {

      },
      "mode" : 7,
      "debug_info" : "sigmoid_hard_6",
      "top" : "sigmoid_hard_6",
      "type" : "activation",
      "name" : "sigmoid_hard_6",
      "beta" : 0.5
    },
    {
      "bottom" : "input.86,sigmoid_hard_6",
      "alpha" : 1,
      "operation" : 1,
      "weights" : {

      },
      "fused_relu" : 0,
      "debug_info" : "input.87",
      "top" : "input.87",
      "type" : "elementwise",
      "name" : "input.87",
      "beta" : 0
    },
    {
      "pad_r" : 0,
      "fused_relu" : 0,
      "fused_tanh" : 0,
      "debug_info" : "result.6",
      "pad_fill_mode" : 0,
      "pad_b" : 0,
      "pad_l" : 0,
      "top" : "result.6",
      "K" : 184,
      "blob_biases" : 133,
      "name" : "result.6",
      "has_batch_norm" : 0,
      "type" : "convolution",
      "n_groups" : 1,
      "pad_t" : 0,
      "has_biases" : 1,
      "C" : 80,
      "bottom" : "input.87",
      "weights" : {

      },
      "Nx" : 1,
      "pad_mode" : 0,
      "pad_value" : 0,
      "Ny" : 1,
      "n_parallel" : 1,
      "blob_weights_f16" : 135
    },
    {
      "bottom" : "result.6,input.81",
      "alpha" : 1,
      "operation" : 0,
      "weights" : {

      },
      "fused_relu" : 0,
      "debug_info" : "input.89",
      "nd_mode" : true,
      "top" : "input.89",
      "type" : "elementwise",
      "name" : "input.89",
      "beta" : 0
    },
    {
      "pad_r" : 0,
      "fused_relu" : 0,
      "fused_tanh" : 0,
      "debug_info" : "input.91",
      "pad_fill_mode" : 0,
      "pad_b" : 0,
      "pad_l" : 0,
      "top" : "input.91",
      "K" : 80,
      "blob_biases" : 137,
      "name" : "input.91",
      "has_batch_norm" : 0,
      "type" : "convolution",
      "n_groups" : 1,
      "pad_t" : 0,
      "has_biases" : 1,
      "C" : 184,
      "bottom" : "input.89",
      "weights" : {

      },
      "Nx" : 1,
      "pad_mode" : 0,
      "pad_value" : 0,
      "Ny" : 1,
      "n_parallel" : 1,
      "blob_weights_f16" : 139
    },
    {
      "alpha" : 0.1666666716337204,
      "bottom" : "input.91",
      "weights" : {

      },
      "mode" : 7,
      "debug_info" : "sigmoid_hard_7",
      "top" : "sigmoid_hard_7",
      "type" : "activation",
      "name" : "sigmoid_hard_7",
      "beta" : 0.5
    },
    {
      "bottom" : "input.91,sigmoid_hard_7",
      "alpha" : 1,
      "operation" : 1,
      "weights" : {

      },
      "fused_relu" : 0,
      "debug_info" : "input.92",
      "top" : "input.92",
      "type" : "elementwise",
      "name" : "input.92",
      "beta" : 0
    },
    {
      "pad_r" : 1,
      "fused_relu" : 0,
      "fused_tanh" : 0,
      "debug_info" : "input.94",
      "pad_fill_mode" : 0,
      "pad_b" : 1,
      "pad_l" : 1,
      "top" : "input.94",
      "K" : 184,
      "blob_biases" : 141,
      "name" : "input.94",
      "has_batch_norm" : 0,
      "type" : "convolution",
      "n_groups" : 184,
      "pad_t" : 1,
      "has_biases" : 1,
      "C" : 184,
      "bottom" : "input.92",
      "weights" : {

      },
      "Nx" : 3,
      "pad_mode" : 0,
      "pad_value" : 0,
      "Ny" : 3,
      "n_parallel" : 1,
      "blob_weights_f16" : 143
    },
    {
      "alpha" : 0.1666666716337204,
      "bottom" : "input.94",
      "weights" : {

      },
      "mode" : 7,
      "debug_info" : "sigmoid_hard_8",
      "top" : "sigmoid_hard_8",
      "type" : "activation",
      "name" : "sigmoid_hard_8",
      "beta" : 0.5
    },
    {
      "bottom" : "input.94,sigmoid_hard_8",
      "alpha" : 1,
      "operation" : 1,
      "weights" : {

      },
      "fused_relu" : 0,
      "debug_info" : "input.95",
      "top" : "input.95",
      "type" : "elementwise",
      "name" : "input.95",
      "beta" : 0
    },
    {
      "pad_r" : 0,
      "fused_relu" : 0,
      "fused_tanh" : 0,
      "debug_info" : "result.7",
      "pad_fill_mode" : 0,
      "pad_b" : 0,
      "pad_l" : 0,
      "top" : "result.7",
      "K" : 184,
      "blob_biases" : 145,
      "name" : "result.7",
      "has_batch_norm" : 0,
      "type" : "convolution",
      "n_groups" : 1,
      "pad_t" : 0,
      "has_biases" : 1,
      "C" : 80,
      "bottom" : "input.95",
      "weights" : {

      },
      "Nx" : 1,
      "pad_mode" : 0,
      "pad_value" : 0,
      "Ny" : 1,
      "n_parallel" : 1,
      "blob_weights_f16" : 147
    },
    {
      "bottom" : "result.7,input.89",
      "alpha" : 1,
      "operation" : 0,
      "weights" : {

      },
      "fused_relu" : 0,
      "debug_info" : "input.97",
      "nd_mode" : true,
      "top" : "input.97",
      "type" : "elementwise",
      "name" : "input.97",
      "beta" : 0
    },
    {
      "pad_r" : 0,
      "fused_relu" : 0,
      "fused_tanh" : 0,
      "debug_info" : "input.99",
      "pad_fill_mode" : 0,
      "pad_b" : 0,
      "pad_l" : 0,
      "top" : "input.99",
      "K" : 80,
      "blob_biases" : 149,
      "name" : "input.99",
      "has_batch_norm" : 0,
      "type" : "convolution",
      "n_groups" : 1,
      "pad_t" : 0,
      "has_biases" : 1,
      "C" : 480,
      "bottom" : "input.97",
      "weights" : {

      },
      "Nx" : 1,
      "pad_mode" : 0,
      "pad_value" : 0,
      "Ny" : 1,
      "n_parallel" : 1,
      "blob_weights_f16" : 151
    },
    {
      "alpha" : 0.1666666716337204,
      "bottom" : "input.99",
      "weights" : {

      },
      "mode" : 7,
      "debug_info" : "sigmoid_hard_9",
      "top" : "sigmoid_hard_9",
      "type" : "activation",
      "name" : "sigmoid_hard_9",
      "beta" : 0.5
    },
    {
      "bottom" : "input.99,sigmoid_hard_9",
      "alpha" : 1,
      "operation" : 1,
      "weights" : {

      },
      "fused_relu" : 0,
      "debug_info" : "input.100",
      "top" : "input.100",
      "type" : "elementwise",
      "name" : "input.100",
      "beta" : 0
    },
    {
      "pad_r" : 1,
      "fused_relu" : 0,
      "fused_tanh" : 0,
      "debug_info" : "input.102",
      "pad_fill_mode" : 0,
      "pad_b" : 1,
      "pad_l" : 1,
      "top" : "input.102",
      "K" : 480,
      "blob_biases" : 153,
      "name" : "input.102",
      "has_batch_norm" : 0,
      "type" : "convolution",
      "n_groups" : 480,
      "pad_t" : 1,
      "has_biases" : 1,
      "C" : 480,
      "bottom" : "input.100",
      "weights" : {

      },
      "Nx" : 3,
      "pad_mode" : 0,
      "pad_value" : 0,
      "Ny" : 3,
      "n_parallel" : 1,
      "blob_weights_f16" : 155
    },
    {
      "alpha" : 0.1666666716337204,
      "bottom" : "input.102",
      "weights" : {

      },
      "mode" : 7,
      "debug_info" : "sigmoid_hard_10",
      "top" : "sigmoid_hard_10",
      "type" : "activation",
      "name" : "sigmoid_hard_10",
      "beta" : 0.5
    },
    {
      "bottom" : "input.102,sigmoid_hard_10",
      "alpha" : 1,
      "operation" : 1,
      "weights" : {

      },
      "fused_relu" : 0,
      "debug_info" : "input.103",
      "top" : "input.103",
      "type" : "elementwise",
      "name" : "input.103",
      "beta" : 0
    },
    {
      "pad_r" : 0,
      "debug_info" : "input.104",
      "pad_fill_mode" : 0,
      "pad_b" : 0,
      "pad_l" : 0,
      "size_x" : 30,
      "is_global" : 1,
      "top" : "input.104",
      "top_shape_style" : 0,
      "stride_x" : 1,
      "avg_or_max" : 0,
      "average_count_exclude_padding" : 1,
      "type" : "pool",
      "name" : "input.104",
      "pad_t" : 0,
      "stride_y" : 1,
      "bottom" : "input.103",
      "weights" : {

      },
      "pad_mode" : 2,
      "size_y" : 17,
      "pad_value" : 0
    },
    {
      "pad_r" : 0,
      "fused_relu" : 1,
      "fused_tanh" : 0,
      "debug_info" : "input.105",
      "pad_fill_mode" : 0,
      "pad_b" : 0,
      "pad_l" : 0,
      "top" : "input.106",
      "K" : 480,
      "blob_biases" : 157,
      "name" : "input.105",
      "has_batch_norm" : 0,
      "type" : "convolution",
      "n_groups" : 1,
      "pad_t" : 0,
      "has_biases" : 1,
      "C" : 120,
      "bottom" : "input.104",
      "weights" : {

      },
      "Nx" : 1,
      "pad_mode" : 0,
      "pad_value" : 0,
      "Ny" : 1,
      "n_parallel" : 1,
      "blob_weights_f16" : 159
    },
    {
      "pad_r" : 0,
      "fused_relu" : 0,
      "fused_tanh" : 0,
      "debug_info" : "input.107",
      "pad_fill_mode" : 0,
      "pad_b" : 0,
      "pad_l" : 0,
      "top" : "input.107",
      "K" : 120,
      "blob_biases" : 161,
      "name" : "input.107",
      "has_batch_norm" : 0,
      "type" : "convolution",
      "n_groups" : 1,
      "pad_t" : 0,
      "has_biases" : 1,
      "C" : 480,
      "bottom" : "input.106",
      "weights" : {

      },
      "Nx" : 1,
      "pad_mode" : 0,
      "pad_value" : 0,
      "Ny" : 1,
      "n_parallel" : 1,
      "blob_weights_f16" : 163
    },
    {
      "alpha" : 0.1666666716337204,
      "bottom" : "input.107",
      "weights" : {

      },
      "mode" : 7,
      "debug_info" : "scale.4",
      "top" : "scale.4",
      "type" : "activation",
      "name" : "scale.4",
      "beta" : 0.5
    },
    {
      "bottom" : "scale.4,input.103",
      "alpha" : 1,
      "operation" : 1,
      "weights" : {

      },
      "fused_relu" : 0,
      "debug_info" : "input.108",
      "nd_mode" : true,
      "top" : "input.108",
      "type" : "elementwise",
      "name" : "input.108",
      "beta" : 0
    },
    {
      "pad_r" : 0,
      "fused_relu" : 0,
      "fused_tanh" : 0,
      "debug_info" : "input.110",
      "pad_fill_mode" : 0,
      "pad_b" : 0,
      "pad_l" : 0,
      "top" : "input.110",
      "K" : 480,
      "blob_biases" : 165,
      "name" : "input.110",
      "has_batch_norm" : 0,
      "type" : "convolution",
      "n_groups" : 1,
      "pad_t" : 0,
      "has_biases" : 1,
      "C" : 112,
      "bottom" : "input.108",
      "weights" : {

      },
      "Nx" : 1,
      "pad_mode" : 0,
      "pad_value" : 0,
      "Ny" : 1,
      "n_parallel" : 1,
      "blob_weights_f16" : 167
    },
    {
      "pad_r" : 0,
      "fused_relu" : 0,
      "fused_tanh" : 0,
      "debug_info" : "input.112",
      "pad_fill_mode" : 0,
      "pad_b" : 0,
      "pad_l" : 0,
      "top" : "input.112",
      "K" : 112,
      "blob_biases" : 169,
      "name" : "input.112",
      "has_batch_norm" : 0,
      "type" : "convolution",
      "n_groups" : 1,
      "pad_t" : 0,
      "has_biases" : 1,
      "C" : 672,
      "bottom" : "input.110",
      "weights" : {

      },
      "Nx" : 1,
      "pad_mode" : 0,
      "pad_value" : 0,
      "Ny" : 1,
      "n_parallel" : 1,
      "blob_weights_f16" : 171
    },
    {
      "alpha" : 0.1666666716337204,
      "bottom" : "input.112",
      "weights" : {

      },
      "mode" : 7,
      "debug_info" : "sigmoid_hard_11",
      "top" : "sigmoid_hard_11",
      "type" : "activation",
      "name" : "sigmoid_hard_11",
      "beta" : 0.5
    },
    {
      "bottom" : "input.112,sigmoid_hard_11",
      "alpha" : 1,
      "operation" : 1,
      "weights" : {

      },
      "fused_relu" : 0,
      "debug_info" : "input.113",
      "top" : "input.113",
      "type" : "elementwise",
      "name" : "input.113",
      "beta" : 0
    },
    {
      "pad_r" : 1,
      "fused_relu" : 0,
      "fused_tanh" : 0,
      "debug_info" : "input.115",
      "pad_fill_mode" : 0,
      "pad_b" : 1,
      "pad_l" : 1,
      "top" : "input.115",
      "K" : 672,
      "blob_biases" : 173,
      "name" : "input.115",
      "has_batch_norm" : 0,
      "type" : "convolution",
      "n_groups" : 672,
      "pad_t" : 1,
      "has_biases" : 1,
      "C" : 672,
      "bottom" : "input.113",
      "weights" : {

      },
      "Nx" : 3,
      "pad_mode" : 0,
      "pad_value" : 0,
      "Ny" : 3,
      "n_parallel" : 1,
      "blob_weights_f16" : 175
    },
    {
      "alpha" : 0.1666666716337204,
      "bottom" : "input.115",
      "weights" : {

      },
      "mode" : 7,
      "debug_info" : "sigmoid_hard_12",
      "top" : "sigmoid_hard_12",
      "type" : "activation",
      "name" : "sigmoid_hard_12",
      "beta" : 0.5
    },
    {
      "bottom" : "input.115,sigmoid_hard_12",
      "alpha" : 1,
      "operation" : 1,
      "weights" : {

      },
      "fused_relu" : 0,
      "debug_info" : "input.116",
      "top" : "input.116",
      "type" : "elementwise",
      "name" : "input.116",
      "beta" : 0
    },
    {
      "pad_r" : 0,
      "debug_info" : "input.117",
      "pad_fill_mode" : 0,
      "pad_b" : 0,
      "pad_l" : 0,
      "size_x" : 30,
      "is_global" : 1,
      "top" : "input.117",
      "top_shape_style" : 0,
      "stride_x" : 1,
      "avg_or_max" : 0,
      "average_count_exclude_padding" : 1,
      "type" : "pool",
      "name" : "input.117",
      "pad_t" : 0,
      "stride_y" : 1,
      "bottom" : "input.116",
      "weights" : {

      },
      "pad_mode" : 2,
      "size_y" : 17,
      "pad_value" : 0
    },
    {
      "pad_r" : 0,
      "fused_relu" : 1,
      "fused_tanh" : 0,
      "debug_info" : "input.118",
      "pad_fill_mode" : 0,
      "pad_b" : 0,
      "pad_l" : 0,
      "top" : "input.119",
      "K" : 672,
      "blob_biases" : 177,
      "name" : "input.118",
      "has_batch_norm" : 0,
      "type" : "convolution",
      "n_groups" : 1,
      "pad_t" : 0,
      "has_biases" : 1,
      "C" : 168,
      "bottom" : "input.117",
      "weights" : {

      },
      "Nx" : 1,
      "pad_mode" : 0,
      "pad_value" : 0,
      "Ny" : 1,
      "n_parallel" : 1,
      "blob_weights_f16" : 179
    },
    {
      "pad_r" : 0,
      "fused_relu" : 0,
      "fused_tanh" : 0,
      "debug_info" : "input.120",
      "pad_fill_mode" : 0,
      "pad_b" : 0,
      "pad_l" : 0,
      "top" : "input.120",
      "K" : 168,
      "blob_biases" : 181,
      "name" : "input.120",
      "has_batch_norm" : 0,
      "type" : "convolution",
      "n_groups" : 1,
      "pad_t" : 0,
      "has_biases" : 1,
      "C" : 672,
      "bottom" : "input.119",
      "weights" : {

      },
      "Nx" : 1,
      "pad_mode" : 0,
      "pad_value" : 0,
      "Ny" : 1,
      "n_parallel" : 1,
      "blob_weights_f16" : 183
    },
    {
      "alpha" : 0.1666666716337204,
      "bottom" : "input.120",
      "weights" : {

      },
      "mode" : 7,
      "debug_info" : "scale.5",
      "top" : "scale.5",
      "type" : "activation",
      "name" : "scale.5",
      "beta" : 0.5
    },
    {
      "bottom" : "scale.5,input.116",
      "alpha" : 1,
      "operation" : 1,
      "weights" : {

      },
      "fused_relu" : 0,
      "debug_info" : "input.121",
      "nd_mode" : true,
      "top" : "input.121",
      "type" : "elementwise",
      "name" : "input.121",
      "beta" : 0
    },
    {
      "pad_r" : 0,
      "fused_relu" : 0,
      "fused_tanh" : 0,
      "debug_info" : "result.8",
      "pad_fill_mode" : 0,
      "pad_b" : 0,
      "pad_l" : 0,
      "top" : "result.8",
      "K" : 672,
      "blob_biases" : 185,
      "name" : "result.8",
      "has_batch_norm" : 0,
      "type" : "convolution",
      "n_groups" : 1,
      "pad_t" : 0,
      "has_biases" : 1,
      "C" : 112,
      "bottom" : "input.121",
      "weights" : {

      },
      "Nx" : 1,
      "pad_mode" : 0,
      "pad_value" : 0,
      "Ny" : 1,
      "n_parallel" : 1,
      "blob_weights_f16" : 187
    },
    {
      "bottom" : "result.8,input.110",
      "alpha" : 1,
      "operation" : 0,
      "weights" : {

      },
      "fused_relu" : 0,
      "debug_info" : "input.123",
      "nd_mode" : true,
      "top" : "input.123",
      "type" : "elementwise",
      "name" : "input.123",
      "beta" : 0
    },
    {
      "pad_r" : 0,
      "fused_relu" : 0,
      "fused_tanh" : 0,
      "debug_info" : "input.125",
      "pad_fill_mode" : 0,
      "pad_b" : 0,
      "pad_l" : 0,
      "top" : "input.125",
      "K" : 112,
      "blob_biases" : 189,
      "name" : "input.125",
      "has_batch_norm" : 0,
      "type" : "convolution",
      "n_groups" : 1,
      "pad_t" : 0,
      "has_biases" : 1,
      "C" : 672,
      "bottom" : "input.123",
      "weights" : {

      },
      "Nx" : 1,
      "pad_mode" : 0,
      "pad_value" : 0,
      "Ny" : 1,
      "n_parallel" : 1,
      "blob_weights_f16" : 191
    },
    {
      "alpha" : 0.1666666716337204,
      "bottom" : "input.125",
      "weights" : {

      },
      "mode" : 7,
      "debug_info" : "sigmoid_hard_13",
      "top" : "sigmoid_hard_13",
      "type" : "activation",
      "name" : "sigmoid_hard_13",
      "beta" : 0.5
    },
    {
      "bottom" : "input.125,sigmoid_hard_13",
      "alpha" : 1,
      "operation" : 1,
      "weights" : {

      },
      "fused_relu" : 0,
      "debug_info" : "input.126",
      "top" : "input.126",
      "type" : "elementwise",
      "name" : "input.126",
      "beta" : 0
    },
    {
      "pad_r" : 4,
      "fused_relu" : 0,
      "fused_tanh" : 0,
      "debug_info" : "input.128",
      "pad_fill_mode" : 0,
      "pad_b" : 4,
      "pad_l" : 4,
      "top" : "input.128",
      "K" : 672,
      "blob_biases" : 193,
      "name" : "input.128",
      "has_batch_norm" : 0,
      "type" : "convolution",
      "n_groups" : 672,
      "pad_t" : 4,
      "has_biases" : 1,
      "C" : 672,
      "bottom" : "input.126",
      "weights" : {

      },
      "Nx" : 5,
      "pad_mode" : 0,
      "dilation_x" : 2,
      "pad_value" : 0,
      "Ny" : 5,
      "n_parallel" : 1,
      "dilation_y" : 2,
      "blob_weights_f16" : 195
    },
    {
      "alpha" : 0.1666666716337204,
      "bottom" : "input.128",
      "weights" : {

      },
      "mode" : 7,
      "debug_info" : "sigmoid_hard_14",
      "top" : "sigmoid_hard_14",
      "type" : "activation",
      "name" : "sigmoid_hard_14",
      "beta" : 0.5
    },
    {
      "bottom" : "input.128,sigmoid_hard_14",
      "alpha" : 1,
      "operation" : 1,
      "weights" : {

      },
      "fused_relu" : 0,
      "debug_info" : "input.129",
      "top" : "input.129",
      "type" : "elementwise",
      "name" : "input.129",
      "beta" : 0
    },
    {
      "pad_r" : 0,
      "debug_info" : "input.130",
      "pad_fill_mode" : 0,
      "pad_b" : 0,
      "pad_l" : 0,
      "size_x" : 30,
      "is_global" : 1,
      "top" : "input.130",
      "top_shape_style" : 0,
      "stride_x" : 1,
      "avg_or_max" : 0,
      "average_count_exclude_padding" : 1,
      "type" : "pool",
      "name" : "input.130",
      "pad_t" : 0,
      "stride_y" : 1,
      "bottom" : "input.129",
      "weights" : {

      },
      "pad_mode" : 2,
      "size_y" : 17,
      "pad_value" : 0
    },
    {
      "pad_r" : 0,
      "fused_relu" : 1,
      "fused_tanh" : 0,
      "debug_info" : "input.131",
      "pad_fill_mode" : 0,
      "pad_b" : 0,
      "pad_l" : 0,
      "top" : "input.132",
      "K" : 672,
      "blob_biases" : 197,
      "name" : "input.131",
      "has_batch_norm" : 0,
      "type" : "convolution",
      "n_groups" : 1,
      "pad_t" : 0,
      "has_biases" : 1,
      "C" : 168,
      "bottom" : "input.130",
      "weights" : {

      },
      "Nx" : 1,
      "pad_mode" : 0,
      "pad_value" : 0,
      "Ny" : 1,
      "n_parallel" : 1,
      "blob_weights_f16" : 199
    },
    {
      "pad_r" : 0,
      "fused_relu" : 0,
      "fused_tanh" : 0,
      "debug_info" : "input.133",
      "pad_fill_mode" : 0,
      "pad_b" : 0,
      "pad_l" : 0,
      "top" : "input.133",
      "K" : 168,
      "blob_biases" : 201,
      "name" : "input.133",
      "has_batch_norm" : 0,
      "type" : "convolution",
      "n_groups" : 1,
      "pad_t" : 0,
      "has_biases" : 1,
      "C" : 672,
      "bottom" : "input.132",
      "weights" : {

      },
      "Nx" : 1,
      "pad_mode" : 0,
      "pad_value" : 0,
      "Ny" : 1,
      "n_parallel" : 1,
      "blob_weights_f16" : 203
    },
    {
      "alpha" : 0.1666666716337204,
      "bottom" : "input.133",
      "weights" : {

      },
      "mode" : 7,
      "debug_info" : "scale.6",
      "top" : "scale.6",
      "type" : "activation",
      "name" : "scale.6",
      "beta" : 0.5
    },
    {
      "bottom" : "scale.6,input.129",
      "alpha" : 1,
      "operation" : 1,
      "weights" : {

      },
      "fused_relu" : 0,
      "debug_info" : "input.134",
      "nd_mode" : true,
      "top" : "input.134",
      "type" : "elementwise",
      "name" : "input.134",
      "beta" : 0
    },
    {
      "pad_r" : 0,
      "fused_relu" : 0,
      "fused_tanh" : 0,
      "debug_info" : "input.136",
      "pad_fill_mode" : 0,
      "pad_b" : 0,
      "pad_l" : 0,
      "top" : "input.136",
      "K" : 672,
      "blob_biases" : 205,
      "name" : "input.136",
      "has_batch_norm" : 0,
      "type" : "convolution",
      "n_groups" : 1,
      "pad_t" : 0,
      "has_biases" : 1,
      "C" : 160,
      "bottom" : "input.134",
      "weights" : {

      },
      "Nx" : 1,
      "pad_mode" : 0,
      "pad_value" : 0,
      "Ny" : 1,
      "n_parallel" : 1,
      "blob_weights_f16" : 207
    },
    {
      "pad_r" : 0,
      "fused_relu" : 0,
      "fused_tanh" : 0,
      "debug_info" : "input.138",
      "pad_fill_mode" : 0,
      "pad_b" : 0,
      "pad_l" : 0,
      "top" : "input.138",
      "K" : 160,
      "blob_biases" : 209,
      "name" : "input.138",
      "has_batch_norm" : 0,
      "type" : "convolution",
      "n_groups" : 1,
      "pad_t" : 0,
      "has_biases" : 1,
      "C" : 960,
      "bottom" : "input.136",
      "weights" : {

      },
      "Nx" : 1,
      "pad_mode" : 0,
      "pad_value" : 0,
      "Ny" : 1,
      "n_parallel" : 1,
      "blob_weights_f16" : 211
    },
    {
      "alpha" : 0.1666666716337204,
      "bottom" : "input.138",
      "weights" : {

      },
      "mode" : 7,
      "debug_info" : "sigmoid_hard_15",
      "top" : "sigmoid_hard_15",
      "type" : "activation",
      "name" : "sigmoid_hard_15",
      "beta" : 0.5
    },
    {
      "bottom" : "input.138,sigmoid_hard_15",
      "alpha" : 1,
      "operation" : 1,
      "weights" : {

      },
      "fused_relu" : 0,
      "debug_info" : "input.139",
      "top" : "input.139",
      "type" : "elementwise",
      "name" : "input.139",
      "beta" : 0
    },
    {
      "pad_r" : 4,
      "fused_relu" : 0,
      "fused_tanh" : 0,
      "debug_info" : "input.141",
      "pad_fill_mode" : 0,
      "pad_b" : 4,
      "pad_l" : 4,
      "top" : "input.141",
      "K" : 960,
      "blob_biases" : 213,
      "name" : "input.141",
      "has_batch_norm" : 0,
      "type" : "convolution",
      "n_groups" : 960,
      "pad_t" : 4,
      "has_biases" : 1,
      "C" : 960,
      "bottom" : "input.139",
      "weights" : {

      },
      "Nx" : 5,
      "pad_mode" : 0,
      "dilation_x" : 2,
      "pad_value" : 0,
      "Ny" : 5,
      "n_parallel" : 1,
      "dilation_y" : 2,
      "blob_weights_f16" : 215
    },
    {
      "alpha" : 0.1666666716337204,
      "bottom" : "input.141",
      "weights" : {

      },
      "mode" : 7,
      "debug_info" : "sigmoid_hard_16",
      "top" : "sigmoid_hard_16",
      "type" : "activation",
      "name" : "sigmoid_hard_16",
      "beta" : 0.5
    },
    {
      "bottom" : "input.141,sigmoid_hard_16",
      "alpha" : 1,
      "operation" : 1,
      "weights" : {

      },
      "fused_relu" : 0,
      "debug_info" : "input.142",
      "top" : "input.142",
      "type" : "elementwise",
      "name" : "input.142",
      "beta" : 0
    },
    {
      "pad_r" : 0,
      "debug_info" : "input.143",
      "pad_fill_mode" : 0,
      "pad_b" : 0,
      "pad_l" : 0,
      "size_x" : 30,
      "is_global" : 1,
      "top" : "input.143",
      "top_shape_style" : 0,
      "stride_x" : 1,
      "avg_or_max" : 0,
      "average_count_exclude_padding" : 1,
      "type" : "pool",
      "name" : "input.143",
      "pad_t" : 0,
      "stride_y" : 1,
      "bottom" : "input.142",
      "weights" : {

      },
      "pad_mode" : 2,
      "size_y" : 17,
      "pad_value" : 0
    },
    {
      "pad_r" : 0,
      "fused_relu" : 1,
      "fused_tanh" : 0,
      "debug_info" : "input.144",
      "pad_fill_mode" : 0,
      "pad_b" : 0,
      "pad_l" : 0,
      "top" : "input.145",
      "K" : 960,
      "blob_biases" : 217,
      "name" : "input.144",
      "has_batch_norm" : 0,
      "type" : "convolution",
      "n_groups" : 1,
      "pad_t" : 0,
      "has_biases" : 1,
      "C" : 240,
      "bottom" : "input.143",
      "weights" : {

      },
      "Nx" : 1,
      "pad_mode" : 0,
      "pad_value" : 0,
      "Ny" : 1,
      "n_parallel" : 1,
      "blob_weights_f16" : 219
    },
    {
      "pad_r" : 0,
      "fused_relu" : 0,
      "fused_tanh" : 0,
      "debug_info" : "input.146",
      "pad_fill_mode" : 0,
      "pad_b" : 0,
      "pad_l" : 0,
      "top" : "input.146",
      "K" : 240,
      "blob_biases" : 221,
      "name" : "input.146",
      "has_batch_norm" : 0,
      "type" : "convolution",
      "n_groups" : 1,
      "pad_t" : 0,
      "has_biases" : 1,
      "C" : 960,
      "bottom" : "input.145",
      "weights" : {

      },
      "Nx" : 1,
      "pad_mode" : 0,
      "pad_value" : 0,
      "Ny" : 1,
      "n_parallel" : 1,
      "blob_weights_f16" : 223
    },
    {
      "alpha" : 0.1666666716337204,
      "bottom" : "input.146",
      "weights" : {

      },
      "mode" : 7,
      "debug_info" : "scale.7",
      "top" : "scale.7",
      "type" : "activation",
      "name" : "scale.7",
      "beta" : 0.5
    },
    {
      "bottom" : "scale.7,input.142",
      "alpha" : 1,
      "operation" : 1,
      "weights" : {

      },
      "fused_relu" : 0,
      "debug_info" : "input.147",
      "nd_mode" : true,
      "top" : "input.147",
      "type" : "elementwise",
      "name" : "input.147",
      "beta" : 0
    },
    {
      "pad_r" : 0,
      "fused_relu" : 0,
      "fused_tanh" : 0,
      "debug_info" : "result.9",
      "pad_fill_mode" : 0,
      "pad_b" : 0,
      "pad_l" : 0,
      "top" : "result.9",
      "K" : 960,
      "blob_biases" : 225,
      "name" : "result.9",
      "has_batch_norm" : 0,
      "type" : "convolution",
      "n_groups" : 1,
      "pad_t" : 0,
      "has_biases" : 1,
      "C" : 160,
      "bottom" : "input.147",
      "weights" : {

      },
      "Nx" : 1,
      "pad_mode" : 0,
      "pad_value" : 0,
      "Ny" : 1,
      "n_parallel" : 1,
      "blob_weights_f16" : 227
    },
    {
      "bottom" : "result.9,input.136",
      "alpha" : 1,
      "operation" : 0,
      "weights" : {

      },
      "fused_relu" : 0,
      "debug_info" : "input.149",
      "nd_mode" : true,
      "top" : "input.149",
      "type" : "elementwise",
      "name" : "input.149",
      "beta" : 0
    },
    {
      "pad_r" : 0,
      "fused_relu" : 0,
      "fused_tanh" : 0,
      "debug_info" : "input.151",
      "pad_fill_mode" : 0,
      "pad_b" : 0,
      "pad_l" : 0,
      "top" : "input.151",
      "K" : 160,
      "blob_biases" : 229,
      "name" : "input.151",
      "has_batch_norm" : 0,
      "type" : "convolution",
      "n_groups" : 1,
      "pad_t" : 0,
      "has_biases" : 1,
      "C" : 960,
      "bottom" : "input.149",
      "weights" : {

      },
      "Nx" : 1,
      "pad_mode" : 0,
      "pad_value" : 0,
      "Ny" : 1,
      "n_parallel" : 1,
      "blob_weights_f16" : 231
    },
    {
      "alpha" : 0.1666666716337204,
      "bottom" : "input.151",
      "weights" : {

      },
      "mode" : 7,
      "debug_info" : "sigmoid_hard_17",
      "top" : "sigmoid_hard_17",
      "type" : "activation",
      "name" : "sigmoid_hard_17",
      "beta" : 0.5
    },
    {
      "bottom" : "input.151,sigmoid_hard_17",
      "alpha" : 1,
      "operation" : 1,
      "weights" : {

      },
      "fused_relu" : 0,
      "debug_info" : "input.152",
      "top" : "input.152",
      "type" : "elementwise",
      "name" : "input.152",
      "beta" : 0
    },
    {
      "pad_r" : 4,
      "fused_relu" : 0,
      "fused_tanh" : 0,
      "debug_info" : "input.154",
      "pad_fill_mode" : 0,
      "pad_b" : 4,
      "pad_l" : 4,
      "top" : "input.154",
      "K" : 960,
      "blob_biases" : 233,
      "name" : "input.154",
      "has_batch_norm" : 0,
      "type" : "convolution",
      "n_groups" : 960,
      "pad_t" : 4,
      "has_biases" : 1,
      "C" : 960,
      "bottom" : "input.152",
      "weights" : {

      },
      "Nx" : 5,
      "pad_mode" : 0,
      "dilation_x" : 2,
      "pad_value" : 0,
      "Ny" : 5,
      "n_parallel" : 1,
      "dilation_y" : 2,
      "blob_weights_f16" : 235
    },
    {
      "alpha" : 0.1666666716337204,
      "bottom" : "input.154",
      "weights" : {

      },
      "mode" : 7,
      "debug_info" : "sigmoid_hard_18",
      "top" : "sigmoid_hard_18",
      "type" : "activation",
      "name" : "sigmoid_hard_18",
      "beta" : 0.5
    },
    {
      "bottom" : "input.154,sigmoid_hard_18",
      "alpha" : 1,
      "operation" : 1,
      "weights" : {

      },
      "fused_relu" : 0,
      "debug_info" : "input.155",
      "top" : "input.155",
      "type" : "elementwise",
      "name" : "input.155",
      "beta" : 0
    },
    {
      "pad_r" : 0,
      "debug_info" : "input.156",
      "pad_fill_mode" : 0,
      "pad_b" : 0,
      "pad_l" : 0,
      "size_x" : 30,
      "is_global" : 1,
      "top" : "input.156",
      "top_shape_style" : 0,
      "stride_x" : 1,
      "avg_or_max" : 0,
      "average_count_exclude_padding" : 1,
      "type" : "pool",
      "name" : "input.156",
      "pad_t" : 0,
      "stride_y" : 1,
      "bottom" : "input.155",
      "weights" : {

      },
      "pad_mode" : 2,
      "size_y" : 17,
      "pad_value" : 0
    },
    {
      "pad_r" : 0,
      "fused_relu" : 1,
      "fused_tanh" : 0,
      "debug_info" : "input.157",
      "pad_fill_mode" : 0,
      "pad_b" : 0,
      "pad_l" : 0,
      "top" : "input.158",
      "K" : 960,
      "blob_biases" : 237,
      "name" : "input.157",
      "has_batch_norm" : 0,
      "type" : "convolution",
      "n_groups" : 1,
      "pad_t" : 0,
      "has_biases" : 1,
      "C" : 240,
      "bottom" : "input.156",
      "weights" : {

      },
      "Nx" : 1,
      "pad_mode" : 0,
      "pad_value" : 0,
      "Ny" : 1,
      "n_parallel" : 1,
      "blob_weights_f16" : 239
    },
    {
      "pad_r" : 0,
      "fused_relu" : 0,
      "fused_tanh" : 0,
      "debug_info" : "input.159",
      "pad_fill_mode" : 0,
      "pad_b" : 0,
      "pad_l" : 0,
      "top" : "input.159",
      "K" : 240,
      "blob_biases" : 241,
      "name" : "input.159",
      "has_batch_norm" : 0,
      "type" : "convolution",
      "n_groups" : 1,
      "pad_t" : 0,
      "has_biases" : 1,
      "C" : 960,
      "bottom" : "input.158",
      "weights" : {

      },
      "Nx" : 1,
      "pad_mode" : 0,
      "pad_value" : 0,
      "Ny" : 1,
      "n_parallel" : 1,
      "blob_weights_f16" : 243
    },
    {
      "alpha" : 0.1666666716337204,
      "bottom" : "input.159",
      "weights" : {

      },
      "mode" : 7,
      "debug_info" : "scale",
      "top" : "scale",
      "type" : "activation",
      "name" : "scale",
      "beta" : 0.5
    },
    {
      "bottom" : "scale,input.155",
      "alpha" : 1,
      "operation" : 1,
      "weights" : {

      },
      "fused_relu" : 0,
      "debug_info" : "input.160",
      "nd_mode" : true,
      "top" : "input.160",
      "type" : "elementwise",
      "name" : "input.160",
      "beta" : 0
    },
    {
      "pad_r" : 0,
      "fused_relu" : 0,
      "fused_tanh" : 0,
      "debug_info" : "result",
      "pad_fill_mode" : 0,
      "pad_b" : 0,
      "pad_l" : 0,
      "top" : "result",
      "K" : 960,
      "blob_biases" : 245,
      "name" : "result",
      "has_batch_norm" : 0,
      "type" : "convolution",
      "n_groups" : 1,
      "pad_t" : 0,
      "has_biases" : 1,
      "C" : 160,
      "bottom" : "input.160",
      "weights" : {

      },
      "Nx" : 1,
      "pad_mode" : 0,
      "pad_value" : 0,
      "Ny" : 1,
      "n_parallel" : 1,
      "blob_weights_f16" : 247
    },
    {
      "bottom" : "result,input.149",
      "alpha" : 1,
      "operation" : 0,
      "weights" : {

      },
      "fused_relu" : 0,
      "debug_info" : "input.162",
      "nd_mode" : true,
      "top" : "input.162",
      "type" : "elementwise",
      "name" : "input.162",
      "beta" : 0
    },
    {
      "pad_r" : 0,
      "fused_relu" : 0,
      "fused_tanh" : 0,
      "debug_info" : "input.164",
      "pad_fill_mode" : 0,
      "pad_b" : 0,
      "pad_l" : 0,
      "top" : "input.164",
      "K" : 160,
      "blob_biases" : 249,
      "name" : "input.164",
      "has_batch_norm" : 0,
      "type" : "convolution",
      "n_groups" : 1,
      "pad_t" : 0,
      "has_biases" : 1,
      "C" : 960,
      "bottom" : "input.162",
      "weights" : {

      },
      "Nx" : 1,
      "pad_mode" : 0,
      "pad_value" : 0,
      "Ny" : 1,
      "n_parallel" : 1,
      "blob_weights_f16" : 251
    },
    {
      "alpha" : 0.1666666716337204,
      "bottom" : "input.164",
      "weights" : {

      },
      "mode" : 7,
      "debug_info" : "sigmoid_hard_19",
      "top" : "sigmoid_hard_19",
      "type" : "activation",
      "name" : "sigmoid_hard_19",
      "beta" : 0.5
    },
    {
      "bottom" : "input.164,sigmoid_hard_19",
      "alpha" : 1,
      "operation" : 1,
      "weights" : {

      },
      "fused_relu" : 0,
      "debug_info" : "input.165",
      "top" : "input.165",
      "type" : "elementwise",
      "name" : "input.165",
      "beta" : 0
    },
    {
      "pad_r" : 0,
      "fused_relu" : 1,
      "fused_tanh" : 0,
      "debug_info" : "input.167",
      "pad_fill_mode" : 0,
      "pad_b" : 0,
      "pad_l" : 0,
      "top" : "835",
      "K" : 960,
      "blob_biases" : 253,
      "name" : "input.167",
      "has_batch_norm" : 0,
      "type" : "convolution",
      "n_groups" : 1,
      "pad_t" : 0,
      "has_biases" : 1,
      "C" : 128,
      "bottom" : "input.165",
      "weights" : {

      },
      "Nx" : 1,
      "pad_mode" : 0,
      "pad_value" : 0,
      "Ny" : 1,
      "n_parallel" : 1,
      "blob_weights_f16" : 255
    },
    {
      "pad_r" : 0,
      "debug_info" : "input.168",
      "pad_fill_mode" : 0,
      "pad_b" : 0,
      "pad_l" : 0,
      "size_x" : 30,
      "is_global" : 1,
      "top" : "input.168",
      "top_shape_style" : 0,
      "stride_x" : 1,
      "avg_or_max" : 0,
      "average_count_exclude_padding" : 1,
      "type" : "pool",
      "name" : "input.168",
      "pad_t" : 0,
      "stride_y" : 1,
      "bottom" : "input.165",
      "weights" : {

      },
      "pad_mode" : 2,
      "size_y" : 17,
      "pad_value" : 0
    },
    {
      "pad_r" : 0,
      "fused_relu" : 0,
      "fused_tanh" : 0,
      "debug_info" : "input.169",
      "pad_fill_mode" : 0,
      "pad_b" : 0,
      "pad_l" : 0,
      "top" : "input.169",
      "K" : 960,
      "name" : "input.169",
      "has_batch_norm" : 0,
      "type" : "convolution",
      "n_groups" : 1,
      "pad_t" : 0,
      "has_biases" : 0,
      "C" : 128,
      "bottom" : "input.168",
      "weights" : {

      },
      "Nx" : 1,
      "pad_mode" : 0,
      "pad_value" : 0,
      "Ny" : 1,
      "n_parallel" : 1,
      "blob_weights_f16" : 257
    },
    {
      "bottom" : "input.169",
      "weights" : {

      },
      "mode" : 3,
      "debug_info" : "843",
      "top" : "843",
      "type" : "activation",
      "name" : "843"
    },
    {
      "bottom" : "835,843",
      "alpha" : 1,
      "operation" : 1,
      "weights" : {

      },
      "fused_relu" : 0,
      "debug_info" : "844",
      "nd_mode" : true,
      "top" : "844",
      "type" : "elementwise",
      "name" : "844",
      "beta" : 0
    },
    {
      "pad_r" : 0,
      "debug_info" : "input.170",
      "pad_fill_mode" : 0,
      "pad_b" : 0,
      "pad_l" : 0,
      "size_x" : 2,
      "top" : "input.170",
      "top_shape_style" : 2,
      "stride_x" : 2,
      "avg_or_max" : 0,
      "average_count_exclude_padding" : 1,
      "type" : "pool",
      "name" : "input.170",
      "pad_t" : 0,
      "stride_y" : 2,
      "bottom" : "tensor.1",
      "weights" : {

      },
      "pad_mode" : 0,
      "size_y" : 2,
      "pad_value" : 0
    },
    {
      "pad_r" : 0,
      "debug_info" : "input.171",
      "pad_fill_mode" : 0,
      "pad_b" : 0,
      "pad_l" : 0,
      "size_x" : 2,
      "top" : "input.171",
      "top_shape_style" : 2,
      "stride_x" : 2,
      "avg_or_max" : 0,
      "average_count_exclude_padding" : 1,
      "type" : "pool",
      "name" : "input.171",
      "pad_t" : 0,
      "stride_y" : 2,
      "bottom" : "input.170",
      "weights" : {

      },
      "pad_mode" : 0,
      "size_y" : 2,
      "pad_value" : 0
    },
    {
      "pad_r" : 0,
      "debug_info" : "s",
      "pad_fill_mode" : 0,
      "pad_b" : 0,
      "pad_l" : 0,
      "size_x" : 2,
      "top" : "s",
      "top_shape_style" : 2,
      "stride_x" : 2,
      "avg_or_max" : 0,
      "average_count_exclude_padding" : 1,
      "type" : "pool",
      "name" : "s",
      "pad_t" : 0,
      "stride_y" : 2,
      "bottom" : "input.171",
      "weights" : {

      },
      "pad_mode" : 0,
      "size_y" : 2,
      "pad_value" : 0
    },
    {
      "begin_104" : 0,
      "begin_63" : 0,
      "begin_59" : 0,
      "begin_64" : 0,
      "begin_105" : 0,
      "begin_65" : 0,
      "begin_0" : 0,
      "begin_70" : 0,
      "begin_66" : 0,
      "begin_106" : 0,
      "begin_110" : 0,
      "begin_2" : 0,
      "begin_71" : 0,
      "begin_67" : 0,
      "begin_68" : 0,
      "begin_107" : 0,
      "begin_111" : 0,
      "begin_4" : 0,
      "begin_72" : 0,
      "begin_73" : 0,
      "begin_69" : 0,
      "begin_6" : 0,
      "begin_74" : 0,
      "begin_108" : 0,
      "type" : "split_nd",
      "begin_8" : 0,
      "begin_112" : 0,
      "begin_75" : 0,
      "begin_10" : 0,
      "begin_80" : 0,
      "begin_76" : 0,
      "begin_109" : 0,
      "begin_113" : 0,
      "begin_11" : 0,
      "nd_axis" : -3,
      "begin_81" : 0,
      "begin_77" : 0,
      "begin_114" : 0,
      "begin_12" : 0,
      "begin_78" : 0,
      "begin_82" : 0,
      "begin_13" : 0,
      "begin_83" : 0,
      "begin_79" : 0,
      "begin_115" : 0,
      "begin_14" : 0,
      "begin_84" : 0,
      "begin_15" : 0,
      "begin_85" : 0,
      "begin_116" : 0,
      "begin_120" : 0,
      "begin_20" : 0,
      "begin_86" : 0,
      "begin_16" : 0,
      "begin_90" : 0,
      "begin_21" : 0,
      "begin_91" : 0,
      "begin_87" : 0,
      "begin_17" : 0,
      "begin_117" : 0,
      "begin_121" : 0,
      "begin_18" : 0,
      "begin_92" : 0,
      "begin_88" : 0,
      "begin_22" : 0,
      "begin_23" : 0,
      "begin_89" : 0,
      "begin_19" : 0,
      "begin_93" : 0,
      "begin_118" : 0,
      "begin_122" : 0,
      "begin_24" : 0,
      "begin_94" : 0,
      "begin_25" : 0,
      "begin_95" : 0,
      "begin_119" : 0,
      "begin_123" : 0,
      "begin_30" : 0,
      "begin_26" : 0,
      "begin_96" : 0,
      "begin_124" : 0,
      "begin_31" : 0,
      "begin_97" : 0,
      "begin_27" : 0,
      "begin_28" : 0,
      "begin_98" : 0,
      "begin_32" : 0,
      "begin_125" : 0,
      "begin_33" : 0,
      "begin_29" : 0,
      "begin_99" : 0,
      "begin_1" : 0,
      "weights" : {

      },
      "begin_34" : 0,
      "bottom" : "844",
      "begin_3" : 0,
      "begin_126" : 0,
      "begin_35" : 0,
      "begin_5" : 0,
      "begin_36" : 0,
      "begin_40" : 0,
      "begin_127" : 0,
      "name" : "882",
      "begin_41" : 0,
      "begin_37" : 0,
      "begin_7" : 0,
      "begin_42" : 0,
      "begin_38" : 0,
      "begin_9" : 0,
      "begin_39" : 0,
      "begin_43" : 0,
      "begin_44" : 0,
      "begin_45" : 0,
      "begin_50" : 0,
      "begin_46" : 0,
      "begin_51" : 0,
      "begin_47" : 0,
      "begin_100" : 0,
      "begin_52" : 0,
      "debug_info" : "882",
      "begin_48" : 0,
      "top" : "882:0,882:1",
      "begin_101" : 0,
      "begin_53" : 0,
      "begin_49" : 0,
      "begin_54" : 0,
      "begin_55" : 0,
      "begin_102" : 0,
      "begin_60" : 0,
      "begin_56" : 0,
      "begin_103" : 0,
      "begin_57" : 0,
      "begin_61" : 0,
      "begin_62" : 0,
      "begin_58" : 0
    },
    {
      "weights" : {

      },
      "debug_info" : "input.172",
      "top" : "input.172",
      "type" : "concat",
      "name" : "input.172",
      "bottom" : "882:1,r4i"
    },
    {
      "pad_r" : 1,
      "fused_relu" : 0,
      "fused_tanh" : 0,
      "debug_info" : "input.173",
      "pad_fill_mode" : 0,
      "pad_b" : 1,
      "pad_l" : 1,
      "top" : "input.173",
      "K" : 128,
      "blob_biases" : 259,
      "name" : "input.173",
      "has_batch_norm" : 0,
      "type" : "convolution",
      "n_groups" : 1,
      "pad_t" : 1,
      "has_biases" : 1,
      "C" : 128,
      "bottom" : "input.172",
      "weights" : {

      },
      "Nx" : 3,
      "pad_mode" : 0,
      "pad_value" : 0,
      "Ny" : 3,
      "n_parallel" : 1,
      "blob_weights_f16" : 261
    },
    {
      "bottom" : "input.173",
      "weights" : {

      },
      "mode" : 3,
      "debug_info" : "892",
      "top" : "892",
      "type" : "activation",
      "name" : "892"
    },
    {
      "begin_104" : 0,
      "begin_63" : 0,
      "begin_59" : 0,
      "begin_64" : 0,
      "begin_105" : 0,
      "begin_65" : 0,
      "begin_0" : 0,
      "begin_70" : 0,
      "begin_66" : 0,
      "begin_106" : 0,
      "begin_110" : 0,
      "begin_2" : 0,
      "begin_71" : 0,
      "begin_67" : 0,
      "begin_68" : 0,
      "begin_107" : 0,
      "begin_111" : 0,
      "begin_4" : 0,
      "begin_72" : 0,
      "begin_73" : 0,
      "begin_69" : 0,
      "begin_6" : 0,
      "begin_74" : 0,
      "begin_108" : 0,
      "type" : "split_nd",
      "begin_8" : 0,
      "begin_112" : 0,
      "begin_75" : 0,
      "begin_10" : 0,
      "begin_80" : 0,
      "begin_76" : 0,
      "begin_109" : 0,
      "begin_113" : 0,
      "begin_11" : 0,
      "nd_axis" : 1,
      "begin_81" : 0,
      "begin_77" : 0,
      "begin_114" : 0,
      "begin_12" : 0,
      "begin_78" : 0,
      "begin_82" : 0,
      "begin_13" : 0,
      "begin_83" : 0,
      "begin_79" : 0,
      "begin_115" : 0,
      "begin_14" : 0,
      "begin_84" : 0,
      "begin_15" : 0,
      "begin_85" : 0,
      "begin_116" : 0,
      "begin_120" : 0,
      "begin_20" : 0,
      "begin_86" : 0,
      "begin_16" : 0,
      "begin_90" : 0,
      "begin_21" : 0,
      "begin_91" : 0,
      "begin_87" : 0,
      "begin_17" : 0,
      "begin_117" : 0,
      "begin_121" : 0,
      "begin_18" : 0,
      "begin_92" : 0,
      "begin_88" : 0,
      "begin_22" : 0,
      "begin_23" : 0,
      "begin_89" : 0,
      "begin_19" : 0,
      "begin_93" : 0,
      "begin_118" : 0,
      "begin_122" : 0,
      "begin_24" : 0,
      "begin_94" : 0,
      "begin_25" : 0,
      "begin_95" : 0,
      "begin_119" : 0,
      "begin_123" : 0,
      "begin_30" : 0,
      "begin_26" : 0,
      "begin_96" : 0,
      "begin_124" : 0,
      "begin_31" : 0,
      "begin_97" : 0,
      "begin_27" : 0,
      "begin_28" : 0,
      "begin_98" : 0,
      "begin_32" : 0,
      "begin_125" : 0,
      "begin_33" : 0,
      "begin_29" : 0,
      "begin_99" : 0,
      "begin_1" : 0,
      "weights" : {

      },
      "begin_34" : 0,
      "bottom" : "892",
      "begin_3" : 0,
      "begin_126" : 0,
      "begin_35" : 0,
      "begin_5" : 0,
      "begin_36" : 0,
      "begin_40" : 0,
      "begin_127" : 0,
      "name" : "893",
      "begin_41" : 0,
      "begin_37" : 0,
      "begin_7" : 0,
      "begin_42" : 0,
      "begin_38" : 0,
      "begin_9" : 0,
      "begin_39" : 0,
      "begin_43" : 0,
      "begin_44" : 0,
      "begin_45" : 0,
      "begin_50" : 0,
      "begin_46" : 0,
      "begin_51" : 0,
      "begin_47" : 0,
      "begin_100" : 0,
      "begin_52" : 0,
      "debug_info" : "893",
      "begin_48" : 0,
      "top" : "893:0,893:1",
      "begin_101" : 0,
      "begin_53" : 0,
      "begin_49" : 0,
      "begin_54" : 0,
      "begin_55" : 0,
      "begin_102" : 0,
      "begin_60" : 0,
      "begin_56" : 0,
      "begin_103" : 0,
      "begin_57" : 0,
      "begin_61" : 0,
      "begin_62" : 0,
      "begin_58" : 0
    },
    {
      "bottom" : "893:0,r4i",
      "alpha" : 1,
      "operation" : 1,
      "weights" : {

      },
      "fused_relu" : 0,
      "debug_info" : "896",
      "nd_mode" : true,
      "top" : "896",
      "type" : "elementwise",
      "name" : "896",
      "beta" : 0
    },
    {
      "weights" : {

      },
      "debug_info" : "input.174",
      "top" : "input.174",
      "type" : "concat",
      "name" : "input.174",
      "bottom" : "882:1,896"
    },
    {
      "pad_r" : 1,
      "fused_relu" : 0,
      "fused_tanh" : 1,
      "debug_info" : "input.175",
      "pad_fill_mode" : 0,
      "pad_b" : 1,
      "pad_l" : 1,
      "top" : "c.1",
      "K" : 128,
      "blob_biases" : 263,
      "name" : "input.175",
      "has_batch_norm" : 0,
      "type" : "convolution",
      "n_groups" : 1,
      "pad_t" : 1,
      "has_biases" : 1,
      "C" : 64,
      "bottom" : "input.174",
      "weights" : {

      },
      "Nx" : 3,
      "pad_mode" : 0,
      "pad_value" : 0,
      "Ny" : 3,
      "n_parallel" : 1,
      "blob_weights_f16" : 265
    },
    {
      "top" : "855",
      "w" : 1,
      "h" : 1,
      "name" : "855",
      "nd_rank" : 1,
      "type" : "load_constant",
      "k" : 1,
      "bottom" : "",
      "debug_info" : "855",
      "n" : 1,
      "weights" : {

      },
      "constant_blob" : 267
    },
    {
      "alpha" : -1,
      "bottom" : "893:1",
      "weights" : {

      },
      "mode" : 6,
      "debug_info" : "_neg_y_905",
      "top" : "_neg_y_905",
      "type" : "activation",
      "name" : "_neg_y_905",
      "beta" : 0
    },
    {
      "bottom" : "_neg_y_905,855",
      "alpha" : 1,
      "operation" : 0,
      "weights" : {

      },
      "fused_relu" : 0,
      "debug_info" : "905",
      "top" : "905",
      "type" : "elementwise",
      "name" : "905",
      "beta" : 0
    },
    {
      "bottom" : "905,r4i",
      "alpha" : 1,
      "operation" : 1,
      "weights" : {

      },
      "fused_relu" : 0,
      "debug_info" : "906",
      "nd_mode" : true,
      "top" : "906",
      "type" : "elementwise",
      "name" : "906",
      "beta" : 0
    },
    {
      "bottom" : "893:1,c.1",
      "alpha" : 1,
      "operation" : 1,
      "weights" : {

      },
      "fused_relu" : 0,
      "debug_info" : "907",
      "top" : "907",
      "type" : "elementwise",
      "name" : "907",
      "beta" : 0
    },
    {
      "name" : "r.2",
      "fused_relu" : 0,
      "beta" : 0,
      "operation" : 0,
      "type" : "elementwise",
      "alpha" : 1,
      "attributes" : {
        "is_output" : 1
      },
      "bottom" : "906,907",
      "debug_info" : "r.2",
      "nd_mode" : true,
      "weights" : {

      },
      "top" : "r4o"
    },
    {
      "weights" : {

      },
      "debug_info" : "input.176",
      "top" : "input.176",
      "type" : "concat",
      "name" : "input.176",
      "bottom" : "882:0,r4o"
    },
    {
      "bottom" : "input.176",
      "target_size_w" : 60,
      "spatial_scale" : 1,
      "weights" : {

      },
      "grid_sampling_mode" : 0,
      "debug_info" : "x.2",
      "target_size_h" : 34,
      "top" : "x.2",
      "type" : "crop_and_resize",
      "name" : "x.2",
      "crop_index_mode" : 0
    },
    {
      "weights" : {

      },
      "debug_info" : "input.177",
      "top" : "input.177",
      "type" : "concat",
      "name" : "input.177",
      "bottom" : "x.2,input.65,s"
    },
    {
      "pad_r" : 1,
      "fused_relu" : 1,
      "fused_tanh" : 0,
      "debug_info" : "input.179",
      "pad_fill_mode" : 0,
      "pad_b" : 1,
      "pad_l" : 1,
      "top" : "924",
      "K" : 171,
      "blob_biases" : 269,
      "name" : "input.179",
      "has_batch_norm" : 0,
      "type" : "convolution",
      "n_groups" : 1,
      "pad_t" : 1,
      "has_biases" : 1,
      "C" : 80,
      "bottom" : "input.177",
      "weights" : {

      },
      "Nx" : 3,
      "pad_mode" : 0,
      "pad_value" : 0,
      "Ny" : 3,
      "n_parallel" : 1,
      "blob_weights_f16" : 271
    },
    {
      "begin_104" : 0,
      "begin_63" : 0,
      "begin_59" : 0,
      "begin_64" : 0,
      "begin_105" : 0,
      "begin_65" : 0,
      "begin_0" : 0,
      "begin_70" : 0,
      "begin_66" : 0,
      "begin_106" : 0,
      "begin_110" : 0,
      "begin_2" : 0,
      "begin_71" : 0,
      "begin_67" : 0,
      "begin_68" : 0,
      "begin_107" : 0,
      "begin_111" : 0,
      "begin_4" : 0,
      "begin_72" : 0,
      "begin_73" : 0,
      "begin_69" : 0,
      "begin_6" : 0,
      "begin_74" : 0,
      "begin_108" : 0,
      "type" : "split_nd",
      "begin_8" : 0,
      "begin_112" : 0,
      "begin_75" : 0,
      "begin_10" : 0,
      "begin_80" : 0,
      "begin_76" : 0,
      "begin_109" : 0,
      "begin_113" : 0,
      "begin_11" : 0,
      "nd_axis" : 1,
      "begin_81" : 0,
      "begin_77" : 0,
      "begin_114" : 0,
      "begin_12" : 0,
      "begin_78" : 0,
      "begin_82" : 0,
      "begin_13" : 0,
      "begin_83" : 0,
      "begin_79" : 0,
      "begin_115" : 0,
      "begin_14" : 0,
      "begin_84" : 0,
      "begin_15" : 0,
      "begin_85" : 0,
      "begin_116" : 0,
      "begin_120" : 0,
      "begin_20" : 0,
      "begin_86" : 0,
      "begin_16" : 0,
      "begin_90" : 0,
      "begin_21" : 0,
      "begin_91" : 0,
      "begin_87" : 0,
      "begin_17" : 0,
      "begin_117" : 0,
      "begin_121" : 0,
      "begin_18" : 0,
      "begin_92" : 0,
      "begin_88" : 0,
      "begin_22" : 0,
      "begin_23" : 0,
      "begin_89" : 0,
      "begin_19" : 0,
      "begin_93" : 0,
      "begin_118" : 0,
      "begin_122" : 0,
      "begin_24" : 0,
      "begin_94" : 0,
      "begin_25" : 0,
      "begin_95" : 0,
      "begin_119" : 0,
      "begin_123" : 0,
      "begin_30" : 0,
      "begin_26" : 0,
      "begin_96" : 0,
      "begin_124" : 0,
      "begin_31" : 0,
      "begin_97" : 0,
      "begin_27" : 0,
      "begin_28" : 0,
      "begin_98" : 0,
      "begin_32" : 0,
      "begin_125" : 0,
      "begin_33" : 0,
      "begin_29" : 0,
      "begin_99" : 0,
      "begin_1" : 0,
      "weights" : {

      },
      "begin_34" : 0,
      "bottom" : "924",
      "begin_3" : 0,
      "begin_126" : 0,
      "begin_35" : 0,
      "begin_5" : 0,
      "begin_36" : 0,
      "begin_40" : 0,
      "begin_127" : 0,
      "name" : "925",
      "begin_41" : 0,
      "begin_37" : 0,
      "begin_7" : 0,
      "begin_42" : 0,
      "begin_38" : 0,
      "begin_9" : 0,
      "begin_39" : 0,
      "begin_43" : 0,
      "begin_44" : 0,
      "begin_45" : 0,
      "begin_50" : 0,
      "begin_46" : 0,
      "begin_51" : 0,
      "begin_47" : 0,
      "begin_100" : 0,
      "begin_52" : 0,
      "debug_info" : "925",
      "begin_48" : 0,
      "top" : "925:0,925:1",
      "begin_101" : 0,
      "begin_53" : 0,
      "begin_49" : 0,
      "begin_54" : 0,
      "begin_55" : 0,
      "begin_102" : 0,
      "begin_60" : 0,
      "begin_56" : 0,
      "begin_103" : 0,
      "begin_57" : 0,
      "begin_61" : 0,
      "begin_62" : 0,
      "begin_58" : 0
    },
    {
      "weights" : {

      },
      "debug_info" : "input.180",
      "top" : "input.180",
      "type" : "concat",
      "name" : "input.180",
      "bottom" : "925:1,r3i"
    },
    {
      "pad_r" : 1,
      "fused_relu" : 0,
      "fused_tanh" : 0,
      "debug_info" : "input.181",
      "pad_fill_mode" : 0,
      "pad_b" : 1,
      "pad_l" : 1,
      "top" : "input.181",
      "K" : 80,
      "blob_biases" : 273,
      "name" : "input.181",
      "has_batch_norm" : 0,
      "type" : "convolution",
      "n_groups" : 1,
      "pad_t" : 1,
      "has_biases" : 1,
      "C" : 80,
      "bottom" : "input.180",
      "weights" : {

      },
      "Nx" : 3,
      "pad_mode" : 0,
      "pad_value" : 0,
      "Ny" : 3,
      "n_parallel" : 1,
      "blob_weights_f16" : 275
    },
    {
      "bottom" : "input.181",
      "weights" : {

      },
      "mode" : 3,
      "debug_info" : "935",
      "top" : "935",
      "type" : "activation",
      "name" : "935"
    },
    {
      "begin_104" : 0,
      "begin_63" : 0,
      "begin_59" : 0,
      "begin_64" : 0,
      "begin_105" : 0,
      "begin_65" : 0,
      "begin_0" : 0,
      "begin_70" : 0,
      "begin_66" : 0,
      "begin_106" : 0,
      "begin_110" : 0,
      "begin_2" : 0,
      "begin_71" : 0,
      "begin_67" : 0,
      "begin_68" : 0,
      "begin_107" : 0,
      "begin_111" : 0,
      "begin_4" : 0,
      "begin_72" : 0,
      "begin_73" : 0,
      "begin_69" : 0,
      "begin_6" : 0,
      "begin_74" : 0,
      "begin_108" : 0,
      "type" : "split_nd",
      "begin_8" : 0,
      "begin_112" : 0,
      "begin_75" : 0,
      "begin_10" : 0,
      "begin_80" : 0,
      "begin_76" : 0,
      "begin_109" : 0,
      "begin_113" : 0,
      "begin_11" : 0,
      "nd_axis" : 1,
      "begin_81" : 0,
      "begin_77" : 0,
      "begin_114" : 0,
      "begin_12" : 0,
      "begin_78" : 0,
      "begin_82" : 0,
      "begin_13" : 0,
      "begin_83" : 0,
      "begin_79" : 0,
      "begin_115" : 0,
      "begin_14" : 0,
      "begin_84" : 0,
      "begin_15" : 0,
      "begin_85" : 0,
      "begin_116" : 0,
      "begin_120" : 0,
      "begin_20" : 0,
      "begin_86" : 0,
      "begin_16" : 0,
      "begin_90" : 0,
      "begin_21" : 0,
      "begin_91" : 0,
      "begin_87" : 0,
      "begin_17" : 0,
      "begin_117" : 0,
      "begin_121" : 0,
      "begin_18" : 0,
      "begin_92" : 0,
      "begin_88" : 0,
      "begin_22" : 0,
      "begin_23" : 0,
      "begin_89" : 0,
      "begin_19" : 0,
      "begin_93" : 0,
      "begin_118" : 0,
      "begin_122" : 0,
      "begin_24" : 0,
      "begin_94" : 0,
      "begin_25" : 0,
      "begin_95" : 0,
      "begin_119" : 0,
      "begin_123" : 0,
      "begin_30" : 0,
      "begin_26" : 0,
      "begin_96" : 0,
      "begin_124" : 0,
      "begin_31" : 0,
      "begin_97" : 0,
      "begin_27" : 0,
      "begin_28" : 0,
      "begin_98" : 0,
      "begin_32" : 0,
      "begin_125" : 0,
      "begin_33" : 0,
      "begin_29" : 0,
      "begin_99" : 0,
      "begin_1" : 0,
      "weights" : {

      },
      "begin_34" : 0,
      "bottom" : "935",
      "begin_3" : 0,
      "begin_126" : 0,
      "begin_35" : 0,
      "begin_5" : 0,
      "begin_36" : 0,
      "begin_40" : 0,
      "begin_127" : 0,
      "name" : "936",
      "begin_41" : 0,
      "begin_37" : 0,
      "begin_7" : 0,
      "begin_42" : 0,
      "begin_38" : 0,
      "begin_9" : 0,
      "begin_39" : 0,
      "begin_43" : 0,
      "begin_44" : 0,
      "begin_45" : 0,
      "begin_50" : 0,
      "begin_46" : 0,
      "begin_51" : 0,
      "begin_47" : 0,
      "begin_100" : 0,
      "begin_52" : 0,
      "debug_info" : "936",
      "begin_48" : 0,
      "top" : "936:0,936:1",
      "begin_101" : 0,
      "begin_53" : 0,
      "begin_49" : 0,
      "begin_54" : 0,
      "begin_55" : 0,
      "begin_102" : 0,
      "begin_60" : 0,
      "begin_56" : 0,
      "begin_103" : 0,
      "begin_57" : 0,
      "begin_61" : 0,
      "begin_62" : 0,
      "begin_58" : 0
    },
    {
      "bottom" : "936:0,r3i",
      "alpha" : 1,
      "operation" : 1,
      "weights" : {

      },
      "fused_relu" : 0,
      "debug_info" : "939",
      "nd_mode" : true,
      "top" : "939",
      "type" : "elementwise",
      "name" : "939",
      "beta" : 0
    },
    {
      "weights" : {

      },
      "debug_info" : "input.182",
      "top" : "input.182",
      "type" : "concat",
      "name" : "input.182",
      "bottom" : "925:1,939"
    },
    {
      "pad_r" : 1,
      "fused_relu" : 0,
      "fused_tanh" : 1,
      "debug_info" : "input.183",
      "pad_fill_mode" : 0,
      "pad_b" : 1,
      "pad_l" : 1,
      "top" : "c.2",
      "K" : 80,
      "blob_biases" : 277,
      "name" : "input.183",
      "has_batch_norm" : 0,
      "type" : "convolution",
      "n_groups" : 1,
      "pad_t" : 1,
      "has_biases" : 1,
      "C" : 40,
      "bottom" : "input.182",
      "weights" : {

      },
      "Nx" : 3,
      "pad_mode" : 0,
      "pad_value" : 0,
      "Ny" : 3,
      "n_parallel" : 1,
      "blob_weights_f16" : 279
    },
    {
      "alpha" : -1,
      "bottom" : "936:1",
      "weights" : {

      },
      "mode" : 6,
      "debug_info" : "_neg_y_948",
      "top" : "_neg_y_948",
      "type" : "activation",
      "name" : "_neg_y_948",
      "beta" : 0
    },
    {
      "bottom" : "_neg_y_948,855",
      "alpha" : 1,
      "operation" : 0,
      "weights" : {

      },
      "fused_relu" : 0,
      "debug_info" : "948",
      "top" : "948",
      "type" : "elementwise",
      "name" : "948",
      "beta" : 0
    },
    {
      "bottom" : "948,r3i",
      "alpha" : 1,
      "operation" : 1,
      "weights" : {

      },
      "fused_relu" : 0,
      "debug_info" : "949",
      "nd_mode" : true,
      "top" : "949",
      "type" : "elementwise",
      "name" : "949",
      "beta" : 0
    },
    {
      "bottom" : "936:1,c.2",
      "alpha" : 1,
      "operation" : 1,
      "weights" : {

      },
      "fused_relu" : 0,
      "debug_info" : "950",
      "top" : "950",
      "type" : "elementwise",
      "name" : "950",
      "beta" : 0
    },
    {
      "name" : "r.4",
      "fused_relu" : 0,
      "beta" : 0,
      "operation" : 0,
      "type" : "elementwise",
      "alpha" : 1,
      "attributes" : {
        "is_output" : 1
      },
      "bottom" : "949,950",
      "debug_info" : "r.4",
      "nd_mode" : true,
      "weights" : {

      },
      "top" : "r3o"
    },
    {
      "weights" : {

      },
      "debug_info" : "input.184",
      "top" : "input.184",
      "type" : "concat",
      "name" : "input.184",
      "bottom" : "925:0,r3o"
    },
    {
      "bottom" : "input.184",
      "target_size_w" : 120,
      "spatial_scale" : 1,
      "weights" : {

      },
      "grid_sampling_mode" : 0,
      "debug_info" : "x.4",
      "target_size_h" : 68,
      "top" : "x.4",
      "type" : "crop_and_resize",
      "name" : "x.4",
      "crop_index_mode" : 0
    },
    {
      "weights" : {

      },
      "debug_info" : "input.185",
      "top" : "input.185",
      "type" : "concat",
      "name" : "input.185",
      "bottom" : "x.4,input.26,input.171"
    },
    {
      "pad_r" : 1,
      "fused_relu" : 1,
      "fused_tanh" : 0,
      "debug_info" : "input.187",
      "pad_fill_mode" : 0,
      "pad_b" : 1,
      "pad_l" : 1,
      "top" : "967",
      "K" : 107,
      "blob_biases" : 281,
      "name" : "input.187",
      "has_batch_norm" : 0,
      "type" : "convolution",
      "n_groups" : 1,
      "pad_t" : 1,
      "has_biases" : 1,
      "C" : 40,
      "bottom" : "input.185",
      "weights" : {

      },
      "Nx" : 3,
      "pad_mode" : 0,
      "pad_value" : 0,
      "Ny" : 3,
      "n_parallel" : 1,
      "blob_weights_f16" : 283
    },
    {
      "begin_104" : 0,
      "begin_63" : 0,
      "begin_59" : 0,
      "begin_64" : 0,
      "begin_105" : 0,
      "begin_65" : 0,
      "begin_0" : 0,
      "begin_70" : 0,
      "begin_66" : 0,
      "begin_106" : 0,
      "begin_110" : 0,
      "begin_2" : 0,
      "begin_71" : 0,
      "begin_67" : 0,
      "begin_68" : 0,
      "begin_107" : 0,
      "begin_111" : 0,
      "begin_4" : 0,
      "begin_72" : 0,
      "begin_73" : 0,
      "begin_69" : 0,
      "begin_6" : 0,
      "begin_74" : 0,
      "begin_108" : 0,
      "type" : "split_nd",
      "begin_8" : 0,
      "begin_112" : 0,
      "begin_75" : 0,
      "begin_10" : 0,
      "begin_80" : 0,
      "begin_76" : 0,
      "begin_109" : 0,
      "begin_113" : 0,
      "begin_11" : 0,
      "nd_axis" : 1,
      "begin_81" : 0,
      "begin_77" : 0,
      "begin_114" : 0,
      "begin_12" : 0,
      "begin_78" : 0,
      "begin_82" : 0,
      "begin_13" : 0,
      "begin_83" : 0,
      "begin_79" : 0,
      "begin_115" : 0,
      "begin_14" : 0,
      "begin_84" : 0,
      "begin_15" : 0,
      "begin_85" : 0,
      "begin_116" : 0,
      "begin_120" : 0,
      "begin_20" : 0,
      "begin_86" : 0,
      "begin_16" : 0,
      "begin_90" : 0,
      "begin_21" : 0,
      "begin_91" : 0,
      "begin_87" : 0,
      "begin_17" : 0,
      "begin_117" : 0,
      "begin_121" : 0,
      "begin_18" : 0,
      "begin_92" : 0,
      "begin_88" : 0,
      "begin_22" : 0,
      "begin_23" : 0,
      "begin_89" : 0,
      "begin_19" : 0,
      "begin_93" : 0,
      "begin_118" : 0,
      "begin_122" : 0,
      "begin_24" : 0,
      "begin_94" : 0,
      "begin_25" : 0,
      "begin_95" : 0,
      "begin_119" : 0,
      "begin_123" : 0,
      "begin_30" : 0,
      "begin_26" : 0,
      "begin_96" : 0,
      "begin_124" : 0,
      "begin_31" : 0,
      "begin_97" : 0,
      "begin_27" : 0,
      "begin_28" : 0,
      "begin_98" : 0,
      "begin_32" : 0,
      "begin_125" : 0,
      "begin_33" : 0,
      "begin_29" : 0,
      "begin_99" : 0,
      "begin_1" : 0,
      "weights" : {

      },
      "begin_34" : 0,
      "bottom" : "967",
      "begin_3" : 0,
      "begin_126" : 0,
      "begin_35" : 0,
      "begin_5" : 0,
      "begin_36" : 0,
      "begin_40" : 0,
      "begin_127" : 0,
      "name" : "968",
      "begin_41" : 0,
      "begin_37" : 0,
      "begin_7" : 0,
      "begin_42" : 0,
      "begin_38" : 0,
      "begin_9" : 0,
      "begin_39" : 0,
      "begin_43" : 0,
      "begin_44" : 0,
      "begin_45" : 0,
      "begin_50" : 0,
      "begin_46" : 0,
      "begin_51" : 0,
      "begin_47" : 0,
      "begin_100" : 0,
      "begin_52" : 0,
      "debug_info" : "968",
      "begin_48" : 0,
      "top" : "968:0,968:1",
      "begin_101" : 0,
      "begin_53" : 0,
      "begin_49" : 0,
      "begin_54" : 0,
      "begin_55" : 0,
      "begin_102" : 0,
      "begin_60" : 0,
      "begin_56" : 0,
      "begin_103" : 0,
      "begin_57" : 0,
      "begin_61" : 0,
      "begin_62" : 0,
      "begin_58" : 0
    },
    {
      "weights" : {

      },
      "debug_info" : "input.188",
      "top" : "input.188",
      "type" : "concat",
      "name" : "input.188",
      "bottom" : "968:1,r2i"
    },
    {
      "pad_r" : 1,
      "fused_relu" : 0,
      "fused_tanh" : 0,
      "debug_info" : "input.189",
      "pad_fill_mode" : 0,
      "pad_b" : 1,
      "pad_l" : 1,
      "top" : "input.189",
      "K" : 40,
      "blob_biases" : 285,
      "name" : "input.189",
      "has_batch_norm" : 0,
      "type" : "convolution",
      "n_groups" : 1,
      "pad_t" : 1,
      "has_biases" : 1,
      "C" : 40,
      "bottom" : "input.188",
      "weights" : {

      },
      "Nx" : 3,
      "pad_mode" : 0,
      "pad_value" : 0,
      "Ny" : 3,
      "n_parallel" : 1,
      "blob_weights_f16" : 287
    },
    {
      "bottom" : "input.189",
      "weights" : {

      },
      "mode" : 3,
      "debug_info" : "978",
      "top" : "978",
      "type" : "activation",
      "name" : "978"
    },
    {
      "begin_104" : 0,
      "begin_63" : 0,
      "begin_59" : 0,
      "begin_64" : 0,
      "begin_105" : 0,
      "begin_65" : 0,
      "begin_0" : 0,
      "begin_70" : 0,
      "begin_66" : 0,
      "begin_106" : 0,
      "begin_110" : 0,
      "begin_2" : 0,
      "begin_71" : 0,
      "begin_67" : 0,
      "begin_68" : 0,
      "begin_107" : 0,
      "begin_111" : 0,
      "begin_4" : 0,
      "begin_72" : 0,
      "begin_73" : 0,
      "begin_69" : 0,
      "begin_6" : 0,
      "begin_74" : 0,
      "begin_108" : 0,
      "type" : "split_nd",
      "begin_8" : 0,
      "begin_112" : 0,
      "begin_75" : 0,
      "begin_10" : 0,
      "begin_80" : 0,
      "begin_76" : 0,
      "begin_109" : 0,
      "begin_113" : 0,
      "begin_11" : 0,
      "nd_axis" : 1,
      "begin_81" : 0,
      "begin_77" : 0,
      "begin_114" : 0,
      "begin_12" : 0,
      "begin_78" : 0,
      "begin_82" : 0,
      "begin_13" : 0,
      "begin_83" : 0,
      "begin_79" : 0,
      "begin_115" : 0,
      "begin_14" : 0,
      "begin_84" : 0,
      "begin_15" : 0,
      "begin_85" : 0,
      "begin_116" : 0,
      "begin_120" : 0,
      "begin_20" : 0,
      "begin_86" : 0,
      "begin_16" : 0,
      "begin_90" : 0,
      "begin_21" : 0,
      "begin_91" : 0,
      "begin_87" : 0,
      "begin_17" : 0,
      "begin_117" : 0,
      "begin_121" : 0,
      "begin_18" : 0,
      "begin_92" : 0,
      "begin_88" : 0,
      "begin_22" : 0,
      "begin_23" : 0,
      "begin_89" : 0,
      "begin_19" : 0,
      "begin_93" : 0,
      "begin_118" : 0,
      "begin_122" : 0,
      "begin_24" : 0,
      "begin_94" : 0,
      "begin_25" : 0,
      "begin_95" : 0,
      "begin_119" : 0,
      "begin_123" : 0,
      "begin_30" : 0,
      "begin_26" : 0,
      "begin_96" : 0,
      "begin_124" : 0,
      "begin_31" : 0,
      "begin_97" : 0,
      "begin_27" : 0,
      "begin_28" : 0,
      "begin_98" : 0,
      "begin_32" : 0,
      "begin_125" : 0,
      "begin_33" : 0,
      "begin_29" : 0,
      "begin_99" : 0,
      "begin_1" : 0,
      "weights" : {

      },
      "begin_34" : 0,
      "bottom" : "978",
      "begin_3" : 0,
      "begin_126" : 0,
      "begin_35" : 0,
      "begin_5" : 0,
      "begin_36" : 0,
      "begin_40" : 0,
      "begin_127" : 0,
      "name" : "979",
      "begin_41" : 0,
      "begin_37" : 0,
      "begin_7" : 0,
      "begin_42" : 0,
      "begin_38" : 0,
      "begin_9" : 0,
      "begin_39" : 0,
      "begin_43" : 0,
      "begin_44" : 0,
      "begin_45" : 0,
      "begin_50" : 0,
      "begin_46" : 0,
      "begin_51" : 0,
      "begin_47" : 0,
      "begin_100" : 0,
      "begin_52" : 0,
      "debug_info" : "979",
      "begin_48" : 0,
      "top" : "979:0,979:1",
      "begin_101" : 0,
      "begin_53" : 0,
      "begin_49" : 0,
      "begin_54" : 0,
      "begin_55" : 0,
      "begin_102" : 0,
      "begin_60" : 0,
      "begin_56" : 0,
      "begin_103" : 0,
      "begin_57" : 0,
      "begin_61" : 0,
      "begin_62" : 0,
      "begin_58" : 0
    },
    {
      "bottom" : "979:0,r2i",
      "alpha" : 1,
      "operation" : 1,
      "weights" : {

      },
      "fused_relu" : 0,
      "debug_info" : "982",
      "nd_mode" : true,
      "top" : "982",
      "type" : "elementwise",
      "name" : "982",
      "beta" : 0
    },
    {
      "weights" : {

      },
      "debug_info" : "input.190",
      "top" : "input.190",
      "type" : "concat",
      "name" : "input.190",
      "bottom" : "968:1,982"
    },
    {
      "pad_r" : 1,
      "fused_relu" : 0,
      "fused_tanh" : 1,
      "debug_info" : "input.191",
      "pad_fill_mode" : 0,
      "pad_b" : 1,
      "pad_l" : 1,
      "top" : "c.3",
      "K" : 40,
      "blob_biases" : 289,
      "name" : "input.191",
      "has_batch_norm" : 0,
      "type" : "convolution",
      "n_groups" : 1,
      "pad_t" : 1,
      "has_biases" : 1,
      "C" : 20,
      "bottom" : "input.190",
      "weights" : {

      },
      "Nx" : 3,
      "pad_mode" : 0,
      "pad_value" : 0,
      "Ny" : 3,
      "n_parallel" : 1,
      "blob_weights_f16" : 291
    },
    {
      "alpha" : -1,
      "bottom" : "979:1",
      "weights" : {

      },
      "mode" : 6,
      "debug_info" : "_neg_y_991",
      "top" : "_neg_y_991",
      "type" : "activation",
      "name" : "_neg_y_991",
      "beta" : 0
    },
    {
      "bottom" : "_neg_y_991,855",
      "alpha" : 1,
      "operation" : 0,
      "weights" : {

      },
      "fused_relu" : 0,
      "debug_info" : "991",
      "top" : "991",
      "type" : "elementwise",
      "name" : "991",
      "beta" : 0
    },
    {
      "bottom" : "991,r2i",
      "alpha" : 1,
      "operation" : 1,
      "weights" : {

      },
      "fused_relu" : 0,
      "debug_info" : "992",
      "nd_mode" : true,
      "top" : "992",
      "type" : "elementwise",
      "name" : "992",
      "beta" : 0
    },
    {
      "bottom" : "979:1,c.3",
      "alpha" : 1,
      "operation" : 1,
      "weights" : {

      },
      "fused_relu" : 0,
      "debug_info" : "993",
      "top" : "993",
      "type" : "elementwise",
      "name" : "993",
      "beta" : 0
    },
    {
      "name" : "r.6",
      "fused_relu" : 0,
      "beta" : 0,
      "operation" : 0,
      "type" : "elementwise",
      "alpha" : 1,
      "attributes" : {
        "is_output" : 1
      },
      "bottom" : "992,993",
      "debug_info" : "r.6",
      "nd_mode" : true,
      "weights" : {

      },
      "top" : "r2o"
    },
    {
      "weights" : {

      },
      "debug_info" : "input.192",
      "top" : "input.192",
      "type" : "concat",
      "name" : "input.192",
      "bottom" : "968:0,r2o"
    },
    {
      "bottom" : "input.192",
      "target_size_w" : 240,
      "spatial_scale" : 1,
      "weights" : {

      },
      "grid_sampling_mode" : 0,
      "debug_info" : "x.6",
      "target_size_h" : 136,
      "top" : "x.6",
      "type" : "crop_and_resize",
      "name" : "x.6",
      "crop_index_mode" : 0
    },
    {
      "bottom" : "x.6",
      "end" : 135,
      "start" : 0,
      "weights" : {

      },
      "axis" : 1,
      "debug_info" : "1005",
      "top" : "1005",
      "type" : "slice",
      "name" : "1005"
    },
    {
      "weights" : {

      },
      "debug_info" : "input.193",
      "top" : "input.193",
      "type" : "concat",
      "name" : "input.193",
      "bottom" : "1005,input.10,input.170"
    },
    {
      "pad_r" : 1,
      "fused_relu" : 1,
      "fused_tanh" : 0,
      "debug_info" : "input.195",
      "pad_fill_mode" : 0,
      "pad_b" : 1,
      "pad_l" : 1,
      "top" : "1015",
      "K" : 59,
      "blob_biases" : 293,
      "name" : "input.195",
      "has_batch_norm" : 0,
      "type" : "convolution",
      "n_groups" : 1,
      "pad_t" : 1,
      "has_biases" : 1,
      "C" : 32,
      "bottom" : "input.193",
      "weights" : {

      },
      "Nx" : 3,
      "pad_mode" : 0,
      "pad_value" : 0,
      "Ny" : 3,
      "n_parallel" : 1,
      "blob_weights_f16" : 295
    },
    {
      "begin_104" : 0,
      "begin_63" : 0,
      "begin_59" : 0,
      "begin_64" : 0,
      "begin_105" : 0,
      "begin_65" : 0,
      "begin_0" : 0,
      "begin_70" : 0,
      "begin_66" : 0,
      "begin_106" : 0,
      "begin_110" : 0,
      "begin_2" : 0,
      "begin_71" : 0,
      "begin_67" : 0,
      "begin_68" : 0,
      "begin_107" : 0,
      "begin_111" : 0,
      "begin_4" : 0,
      "begin_72" : 0,
      "begin_73" : 0,
      "begin_69" : 0,
      "begin_6" : 0,
      "begin_74" : 0,
      "begin_108" : 0,
      "type" : "split_nd",
      "begin_8" : 0,
      "begin_112" : 0,
      "begin_75" : 0,
      "begin_10" : 0,
      "begin_80" : 0,
      "begin_76" : 0,
      "begin_109" : 0,
      "begin_113" : 0,
      "begin_11" : 0,
      "nd_axis" : 1,
      "begin_81" : 0,
      "begin_77" : 0,
      "begin_114" : 0,
      "begin_12" : 0,
      "begin_78" : 0,
      "begin_82" : 0,
      "begin_13" : 0,
      "begin_83" : 0,
      "begin_79" : 0,
      "begin_115" : 0,
      "begin_14" : 0,
      "begin_84" : 0,
      "begin_15" : 0,
      "begin_85" : 0,
      "begin_116" : 0,
      "begin_120" : 0,
      "begin_20" : 0,
      "begin_86" : 0,
      "begin_16" : 0,
      "begin_90" : 0,
      "begin_21" : 0,
      "begin_91" : 0,
      "begin_87" : 0,
      "begin_17" : 0,
      "begin_117" : 0,
      "begin_121" : 0,
      "begin_18" : 0,
      "begin_92" : 0,
      "begin_88" : 0,
      "begin_22" : 0,
      "begin_23" : 0,
      "begin_89" : 0,
      "begin_19" : 0,
      "begin_93" : 0,
      "begin_118" : 0,
      "begin_122" : 0,
      "begin_24" : 0,
      "begin_94" : 0,
      "begin_25" : 0,
      "begin_95" : 0,
      "begin_119" : 0,
      "begin_123" : 0,
      "begin_30" : 0,
      "begin_26" : 0,
      "begin_96" : 0,
      "begin_124" : 0,
      "begin_31" : 0,
      "begin_97" : 0,
      "begin_27" : 0,
      "begin_28" : 0,
      "begin_98" : 0,
      "begin_32" : 0,
      "begin_125" : 0,
      "begin_33" : 0,
      "begin_29" : 0,
      "begin_99" : 0,
      "begin_1" : 0,
      "weights" : {

      },
      "begin_34" : 0,
      "bottom" : "1015",
      "begin_3" : 0,
      "begin_126" : 0,
      "begin_35" : 0,
      "begin_5" : 0,
      "begin_36" : 0,
      "begin_40" : 0,
      "begin_127" : 0,
      "name" : "1016",
      "begin_41" : 0,
      "begin_37" : 0,
      "begin_7" : 0,
      "begin_42" : 0,
      "begin_38" : 0,
      "begin_9" : 0,
      "begin_39" : 0,
      "begin_43" : 0,
      "begin_44" : 0,
      "begin_45" : 0,
      "begin_50" : 0,
      "begin_46" : 0,
      "begin_51" : 0,
      "begin_47" : 0,
      "begin_100" : 0,
      "begin_52" : 0,
      "debug_info" : "1016",
      "begin_48" : 0,
      "top" : "1016:0,1016:1",
      "begin_101" : 0,
      "begin_53" : 0,
      "begin_49" : 0,
      "begin_54" : 0,
      "begin_55" : 0,
      "begin_102" : 0,
      "begin_60" : 0,
      "begin_56" : 0,
      "begin_103" : 0,
      "begin_57" : 0,
      "begin_61" : 0,
      "begin_62" : 0,
      "begin_58" : 0
    },
    {
      "weights" : {

      },
      "debug_info" : "input.196",
      "top" : "input.196",
      "type" : "concat",
      "name" : "input.196",
      "bottom" : "1016:1,r1i"
    },
    {
      "pad_r" : 1,
      "fused_relu" : 0,
      "fused_tanh" : 0,
      "debug_info" : "input.197",
      "pad_fill_mode" : 0,
      "pad_b" : 1,
      "pad_l" : 1,
      "top" : "input.197",
      "K" : 32,
      "blob_biases" : 297,
      "name" : "input.197",
      "has_batch_norm" : 0,
      "type" : "convolution",
      "n_groups" : 1,
      "pad_t" : 1,
      "has_biases" : 1,
      "C" : 32,
      "bottom" : "input.196",
      "weights" : {

      },
      "Nx" : 3,
      "pad_mode" : 0,
      "pad_value" : 0,
      "Ny" : 3,
      "n_parallel" : 1,
      "blob_weights_f16" : 299
    },
    {
      "bottom" : "input.197",
      "weights" : {

      },
      "mode" : 3,
      "debug_info" : "1026",
      "top" : "1026",
      "type" : "activation",
      "name" : "1026"
    },
    {
      "begin_104" : 0,
      "begin_63" : 0,
      "begin_59" : 0,
      "begin_64" : 0,
      "begin_105" : 0,
      "begin_65" : 0,
      "begin_0" : 0,
      "begin_70" : 0,
      "begin_66" : 0,
      "begin_106" : 0,
      "begin_110" : 0,
      "begin_2" : 0,
      "begin_71" : 0,
      "begin_67" : 0,
      "begin_68" : 0,
      "begin_107" : 0,
      "begin_111" : 0,
      "begin_4" : 0,
      "begin_72" : 0,
      "begin_73" : 0,
      "begin_69" : 0,
      "begin_6" : 0,
      "begin_74" : 0,
      "begin_108" : 0,
      "type" : "split_nd",
      "begin_8" : 0,
      "begin_112" : 0,
      "begin_75" : 0,
      "begin_10" : 0,
      "begin_80" : 0,
      "begin_76" : 0,
      "begin_109" : 0,
      "begin_113" : 0,
      "begin_11" : 0,
      "nd_axis" : 1,
      "begin_81" : 0,
      "begin_77" : 0,
      "begin_114" : 0,
      "begin_12" : 0,
      "begin_78" : 0,
      "begin_82" : 0,
      "begin_13" : 0,
      "begin_83" : 0,
      "begin_79" : 0,
      "begin_115" : 0,
      "begin_14" : 0,
      "begin_84" : 0,
      "begin_15" : 0,
      "begin_85" : 0,
      "begin_116" : 0,
      "begin_120" : 0,
      "begin_20" : 0,
      "begin_86" : 0,
      "begin_16" : 0,
      "begin_90" : 0,
      "begin_21" : 0,
      "begin_91" : 0,
      "begin_87" : 0,
      "begin_17" : 0,
      "begin_117" : 0,
      "begin_121" : 0,
      "begin_18" : 0,
      "begin_92" : 0,
      "begin_88" : 0,
      "begin_22" : 0,
      "begin_23" : 0,
      "begin_89" : 0,
      "begin_19" : 0,
      "begin_93" : 0,
      "begin_118" : 0,
      "begin_122" : 0,
      "begin_24" : 0,
      "begin_94" : 0,
      "begin_25" : 0,
      "begin_95" : 0,
      "begin_119" : 0,
      "begin_123" : 0,
      "begin_30" : 0,
      "begin_26" : 0,
      "begin_96" : 0,
      "begin_124" : 0,
      "begin_31" : 0,
      "begin_97" : 0,
      "begin_27" : 0,
      "begin_28" : 0,
      "begin_98" : 0,
      "begin_32" : 0,
      "begin_125" : 0,
      "begin_33" : 0,
      "begin_29" : 0,
      "begin_99" : 0,
      "begin_1" : 0,
      "weights" : {

      },
      "begin_34" : 0,
      "bottom" : "1026",
      "begin_3" : 0,
      "begin_126" : 0,
      "begin_35" : 0,
      "begin_5" : 0,
      "begin_36" : 0,
      "begin_40" : 0,
      "begin_127" : 0,
      "name" : "1027",
      "begin_41" : 0,
      "begin_37" : 0,
      "begin_7" : 0,
      "begin_42" : 0,
      "begin_38" : 0,
      "begin_9" : 0,
      "begin_39" : 0,
      "begin_43" : 0,
      "begin_44" : 0,
      "begin_45" : 0,
      "begin_50" : 0,
      "begin_46" : 0,
      "begin_51" : 0,
      "begin_47" : 0,
      "begin_100" : 0,
      "begin_52" : 0,
      "debug_info" : "1027",
      "begin_48" : 0,
      "top" : "1027:0,1027:1",
      "begin_101" : 0,
      "begin_53" : 0,
      "begin_49" : 0,
      "begin_54" : 0,
      "begin_55" : 0,
      "begin_102" : 0,
      "begin_60" : 0,
      "begin_56" : 0,
      "begin_103" : 0,
      "begin_57" : 0,
      "begin_61" : 0,
      "begin_62" : 0,
      "begin_58" : 0
    },
    {
      "bottom" : "1027:0,r1i",
      "alpha" : 1,
      "operation" : 1,
      "weights" : {

      },
      "fused_relu" : 0,
      "debug_info" : "1030",
      "nd_mode" : true,
      "top" : "1030",
      "type" : "elementwise",
      "name" : "1030",
      "beta" : 0
    },
    {
      "weights" : {

      },
      "debug_info" : "input.198",
      "top" : "input.198",
      "type" : "concat",
      "name" : "input.198",
      "bottom" : "1016:1,1030"
    },
    {
      "pad_r" : 1,
      "fused_relu" : 0,
      "fused_tanh" : 1,
      "debug_info" : "input.199",
      "pad_fill_mode" : 0,
      "pad_b" : 1,
      "pad_l" : 1,
      "top" : "c",
      "K" : 32,
      "blob_biases" : 301,
      "name" : "input.199",
      "has_batch_norm" : 0,
      "type" : "convolution",
      "n_groups" : 1,
      "pad_t" : 1,
      "has_biases" : 1,
      "C" : 16,
      "bottom" : "input.198",
      "weights" : {

      },
      "Nx" : 3,
      "pad_mode" : 0,
      "pad_value" : 0,
      "Ny" : 3,
      "n_parallel" : 1,
      "blob_weights_f16" : 303
    },
    {
      "alpha" : -1,
      "bottom" : "1027:1",
      "weights" : {

      },
      "mode" : 6,
      "debug_info" : "_neg_y_1039",
      "top" : "_neg_y_1039",
      "type" : "activation",
      "name" : "_neg_y_1039",
      "beta" : 0
    },
    {
      "bottom" : "_neg_y_1039,855",
      "alpha" : 1,
      "operation" : 0,
      "weights" : {

      },
      "fused_relu" : 0,
      "debug_info" : "1039",
      "top" : "1039",
      "type" : "elementwise",
      "name" : "1039",
      "beta" : 0
    },
    {
      "bottom" : "1039,r1i",
      "alpha" : 1,
      "operation" : 1,
      "weights" : {

      },
      "fused_relu" : 0,
      "debug_info" : "1040",
      "nd_mode" : true,
      "top" : "1040",
      "type" : "elementwise",
      "name" : "1040",
      "beta" : 0
    },
    {
      "bottom" : "1027:1,c",
      "alpha" : 1,
      "operation" : 1,
      "weights" : {

      },
      "fused_relu" : 0,
      "debug_info" : "1041",
      "top" : "1041",
      "type" : "elementwise",
      "name" : "1041",
      "beta" : 0
    },
    {
      "name" : "r",
      "fused_relu" : 0,
      "beta" : 0,
      "operation" : 0,
      "type" : "elementwise",
      "alpha" : 1,
      "attributes" : {
        "is_output" : 1
      },
      "bottom" : "1040,1041",
      "debug_info" : "r",
      "nd_mode" : true,
      "weights" : {

      },
      "top" : "r1o"
    },
    {
      "weights" : {

      },
      "debug_info" : "input.200",
      "top" : "input.200",
      "type" : "concat",
      "name" : "input.200",
      "bottom" : "1016:0,r1o"
    },
    {
      "bottom" : "input.200",
      "target_size_w" : 480,
      "spatial_scale" : 1,
      "weights" : {

      },
      "grid_sampling_mode" : 0,
      "debug_info" : "x",
      "target_size_h" : 270,
      "top" : "x",
      "type" : "crop_and_resize",
      "name" : "x",
      "crop_index_mode" : 0
    },
    {
      "weights" : {

      },
      "debug_info" : "input.201",
      "top" : "input.201",
      "type" : "concat",
      "name" : "input.201",
      "bottom" : "x,tensor.1"
    },
    {
      "pad_r" : 1,
      "fused_relu" : 1,
      "fused_tanh" : 0,
      "debug_info" : "input.203",
      "pad_fill_mode" : 0,
      "pad_b" : 1,
      "pad_l" : 1,
      "top" : "input.204",
      "K" : 35,
      "blob_biases" : 305,
      "name" : "input.203",
      "has_batch_norm" : 0,
      "type" : "convolution",
      "n_groups" : 1,
      "pad_t" : 1,
      "has_biases" : 1,
      "C" : 16,
      "bottom" : "input.201",
      "weights" : {

      },
      "Nx" : 3,
      "pad_mode" : 0,
      "pad_value" : 0,
      "Ny" : 3,
      "n_parallel" : 1,
      "blob_weights_f16" : 307
    },
    {
      "pad_r" : 1,
      "fused_relu" : 1,
      "fused_tanh" : 0,
      "debug_info" : "input.206",
      "pad_fill_mode" : 0,
      "pad_b" : 1,
      "pad_l" : 1,
      "top" : "input.207",
      "K" : 16,
      "blob_biases" : 309,
      "name" : "input.206",
      "has_batch_norm" : 0,
      "type" : "convolution",
      "n_groups" : 1,
      "pad_t" : 1,
      "has_biases" : 1,
      "C" : 16,
      "bottom" : "input.204",
      "weights" : {

      },
      "Nx" : 3,
      "pad_mode" : 0,
      "pad_value" : 0,
      "Ny" : 3,
      "n_parallel" : 1,
      "blob_weights_f16" : 311
    },
    {
      "pad_r" : 0,
      "fused_relu" : 0,
      "fused_tanh" : 0,
      "debug_info" : "1080",
      "pad_fill_mode" : 0,
      "pad_b" : 0,
      "pad_l" : 0,
      "top" : "1080",
      "K" : 16,
      "blob_biases" : 313,
      "name" : "1080",
      "has_batch_norm" : 0,
      "type" : "convolution",
      "n_groups" : 1,
      "pad_t" : 0,
      "has_biases" : 1,
      "C" : 4,
      "bottom" : "input.207",
      "weights" : {

      },
      "Nx" : 1,
      "pad_mode" : 0,
      "pad_value" : 0,
      "Ny" : 1,
      "n_parallel" : 1,
      "blob_weights_f16" : 315
    },
    {
      "begin_104" : 0,
      "begin_63" : 0,
      "begin_59" : 0,
      "begin_64" : 0,
      "begin_105" : 0,
      "begin_65" : 0,
      "begin_0" : 3,
      "begin_70" : 0,
      "begin_66" : 0,
      "begin_106" : 0,
      "begin_110" : 0,
      "begin_2" : 0,
      "begin_71" : 0,
      "begin_67" : 0,
      "begin_68" : 0,
      "begin_107" : 0,
      "begin_111" : 0,
      "begin_4" : 0,
      "begin_72" : 0,
      "begin_73" : 0,
      "begin_69" : 0,
      "begin_6" : 0,
      "begin_74" : 0,
      "begin_108" : 0,
      "type" : "split_nd",
      "begin_8" : 0,
      "begin_112" : 0,
      "begin_75" : 0,
      "begin_10" : 0,
      "begin_80" : 0,
      "begin_76" : 0,
      "begin_109" : 0,
      "begin_113" : 0,
      "begin_11" : 0,
      "nd_axis" : -3,
      "begin_81" : 0,
      "begin_77" : 0,
      "begin_114" : 0,
      "begin_12" : 0,
      "begin_78" : 0,
      "begin_82" : 0,
      "begin_13" : 0,
      "begin_83" : 0,
      "begin_79" : 0,
      "begin_115" : 0,
      "begin_14" : 0,
      "begin_84" : 0,
      "begin_15" : 0,
      "begin_85" : 0,
      "begin_116" : 0,
      "begin_120" : 0,
      "begin_20" : 0,
      "begin_86" : 0,
      "begin_16" : 0,
      "begin_90" : 0,
      "begin_21" : 0,
      "begin_91" : 0,
      "begin_87" : 0,
      "begin_17" : 0,
      "begin_117" : 0,
      "begin_121" : 0,
      "begin_18" : 0,
      "begin_92" : 0,
      "begin_88" : 0,
      "begin_22" : 0,
      "begin_23" : 0,
      "begin_89" : 0,
      "begin_19" : 0,
      "begin_93" : 0,
      "begin_118" : 0,
      "begin_122" : 0,
      "begin_24" : 0,
      "begin_94" : 0,
      "begin_25" : 0,
      "begin_95" : 0,
      "begin_119" : 0,
      "begin_123" : 0,
      "begin_30" : 0,
      "begin_26" : 0,
      "begin_96" : 0,
      "begin_124" : 0,
      "begin_31" : 0,
      "begin_97" : 0,
      "begin_27" : 0,
      "begin_28" : 0,
      "begin_98" : 0,
      "begin_32" : 0,
      "begin_125" : 0,
      "begin_33" : 0,
      "begin_29" : 0,
      "begin_99" : 0,
      "begin_1" : 1,
      "weights" : {

      },
      "begin_34" : 0,
      "bottom" : "1080",
      "begin_3" : 0,
      "begin_126" : 0,
      "begin_35" : 0,
      "begin_5" : 0,
      "begin_36" : 0,
      "begin_40" : 0,
      "begin_127" : 0,
      "name" : "1085",
      "begin_41" : 0,
      "begin_37" : 0,
      "begin_7" : 0,
      "begin_42" : 0,
      "begin_38" : 0,
      "begin_9" : 0,
      "begin_39" : 0,
      "begin_43" : 0,
      "begin_44" : 0,
      "begin_45" : 0,
      "begin_50" : 0,
      "begin_46" : 0,
      "begin_51" : 0,
      "begin_47" : 0,
      "begin_100" : 0,
      "begin_52" : 0,
      "debug_info" : "1085",
      "begin_48" : 0,
      "top" : "1085:0,1085:1",
      "begin_101" : 0,
      "begin_53" : 0,
      "begin_49" : 0,
      "begin_54" : 0,
      "begin_55" : 0,
      "begin_102" : 0,
      "begin_60" : 0,
      "begin_56" : 0,
      "begin_103" : 0,
      "begin_57" : 0,
      "begin_61" : 0,
      "begin_62" : 0,
      "begin_58" : 0
    },
    {
      "axis_mode" : 4,
      "bottom" : "src",
      "weights" : {

      },
      "mode" : 1,
      "nd_axis" : 1,
      "nd_mode" : true,
      "debug_info" : "1099",
      "use_version" : 1,
      "top" : "1099",
      "type" : "reduce",
      "name" : "1099"
    },
    {
      "weights" : {

      },
      "debug_info" : "fine_x",
      "top" : "fine_x",
      "type" : "concat",
      "name" : "fine_x",
      "bottom" : "src,1099"
    },
    {
      "axis_mode" : 4,
      "bottom" : "tensor.1",
      "weights" : {

      },
      "mode" : 1,
      "nd_axis" : 1,
      "nd_mode" : true,
      "debug_info" : "1103",
      "use_version" : 1,
      "top" : "1103",
      "type" : "reduce",
      "name" : "1103"
    },
    {
      "weights" : {

      },
      "debug_info" : "input.208",
      "top" : "input.208",
      "type" : "concat",
      "name" : "input.208",
      "bottom" : "tensor.1,1103"
    },
    {
      "weights" : {

      },
      "debug_info" : "input.209",
      "top" : "input.209",
      "type" : "concat",
      "name" : "input.209",
      "bottom" : "1085:0,1085:1"
    },
    {
      "pad_r" : 1,
      "fused_relu" : 0,
      "fused_tanh" : 0,
      "debug_info" : "mean_x",
      "pad_fill_mode" : 0,
      "pad_b" : 1,
      "pad_l" : 1,
      "top" : "mean_x",
      "K" : 4,
      "name" : "mean_x",
      "has_batch_norm" : 0,
      "type" : "convolution",
      "n_groups" : 4,
      "pad_t" : 1,
      "has_biases" : 0,
      "C" : 4,
      "bottom" : "input.208",
      "weights" : {

      },
      "Nx" : 3,
      "pad_mode" : 0,
      "pad_value" : 0,
      "Ny" : 3,
      "n_parallel" : 1,
      "blob_weights_f16" : 317
    },
    {
      "pad_r" : 1,
      "fused_relu" : 0,
      "fused_tanh" : 0,
      "debug_info" : "mean_y",
      "pad_fill_mode" : 0,
      "pad_b" : 1,
      "pad_l" : 1,
      "top" : "mean_y",
      "K" : 4,
      "name" : "mean_y",
      "has_batch_norm" : 0,
      "type" : "convolution",
      "n_groups" : 4,
      "pad_t" : 1,
      "has_biases" : 0,
      "C" : 4,
      "bottom" : "input.209",
      "weights" : {

      },
      "Nx" : 3,
      "pad_mode" : 0,
      "pad_value" : 0,
      "Ny" : 3,
      "n_parallel" : 1,
      "blob_weights_f16" : 319
    },
    {
      "bottom" : "input.208,input.209",
      "alpha" : 1,
      "operation" : 1,
      "weights" : {

      },
      "fused_relu" : 0,
      "debug_info" : "input.210",
      "nd_mode" : true,
      "top" : "input.210",
      "type" : "elementwise",
      "name" : "input.210",
      "beta" : 0
    },
    {
      "pad_r" : 1,
      "fused_relu" : 0,
      "fused_tanh" : 0,
      "debug_info" : "1123",
      "pad_fill_mode" : 0,
      "pad_b" : 1,
      "pad_l" : 1,
      "top" : "1123",
      "K" : 4,
      "name" : "1123",
      "has_batch_norm" : 0,
      "type" : "convolution",
      "n_groups" : 4,
      "pad_t" : 1,
      "has_biases" : 0,
      "C" : 4,
      "bottom" : "input.210",
      "weights" : {

      },
      "Nx" : 3,
      "pad_mode" : 0,
      "pad_value" : 0,
      "Ny" : 3,
      "n_parallel" : 1,
      "blob_weights_f16" : 321
    },
    {
      "bottom" : "mean_x,mean_y",
      "alpha" : 1,
      "operation" : 1,
      "weights" : {

      },
      "fused_relu" : 0,
      "debug_info" : "1124",
      "nd_mode" : true,
      "top" : "1124",
      "type" : "elementwise",
      "name" : "1124",
      "beta" : 0
    },
    {
      "bottom" : "1123,1124",
      "alpha" : 1,
      "operation" : 33,
      "weights" : {

      },
      "fused_relu" : 0,
      "debug_info" : "cov_xy",
      "nd_mode" : true,
      "top" : "cov_xy",
      "type" : "elementwise",
      "name" : "cov_xy",
      "beta" : 0
    },
    {
      "bottom" : "input.208,input.208",
      "alpha" : 1,
      "operation" : 1,
      "weights" : {

      },
      "fused_relu" : 0,
      "debug_info" : "input.211",
      "top" : "input.211",
      "type" : "elementwise",
      "name" : "input.211",
      "beta" : 0
    },
    {
      "pad_r" : 1,
      "fused_relu" : 0,
      "fused_tanh" : 0,
      "debug_info" : "1131",
      "pad_fill_mode" : 0,
      "pad_b" : 1,
      "pad_l" : 1,
      "top" : "1131",
      "K" : 4,
      "name" : "1131",
      "has_batch_norm" : 0,
      "type" : "convolution",
      "n_groups" : 4,
      "pad_t" : 1,
      "has_biases" : 0,
      "C" : 4,
      "bottom" : "input.211",
      "weights" : {

      },
      "Nx" : 3,
      "pad_mode" : 0,
      "pad_value" : 0,
      "Ny" : 3,
      "n_parallel" : 1,
      "blob_weights_f16" : 323
    },
    {
      "bottom" : "mean_x,mean_x",
      "alpha" : 1,
      "operation" : 1,
      "weights" : {

      },
      "fused_relu" : 0,
      "debug_info" : "1132",
      "top" : "1132",
      "type" : "elementwise",
      "name" : "1132",
      "beta" : 0
    },
    {
      "bottom" : "1131,1132",
      "alpha" : 1,
      "operation" : 33,
      "weights" : {

      },
      "fused_relu" : 0,
      "debug_info" : "var_x",
      "nd_mode" : true,
      "top" : "var_x",
      "type" : "elementwise",
      "name" : "var_x",
      "beta" : 0
    },
    {
      "weights" : {

      },
      "debug_info" : "input.212",
      "top" : "input.212",
      "type" : "concat",
      "name" : "input.212",
      "bottom" : "cov_xy,var_x,input.207"
    },
    {
      "pad_r" : 0,
      "fused_relu" : 1,
      "fused_tanh" : 0,
      "debug_info" : "input.214",
      "pad_fill_mode" : 0,
      "pad_b" : 0,
      "pad_l" : 0,
      "top" : "input.215",
      "K" : 24,
      "blob_biases" : 325,
      "name" : "input.214",
      "has_batch_norm" : 0,
      "type" : "convolution",
      "n_groups" : 1,
      "pad_t" : 0,
      "has_biases" : 1,
      "C" : 16,
      "bottom" : "input.212",
      "weights" : {

      },
      "Nx" : 1,
      "pad_mode" : 0,
      "pad_value" : 0,
      "Ny" : 1,
      "n_parallel" : 1,
      "blob_weights_f16" : 327
    },
    {
      "pad_r" : 0,
      "fused_relu" : 1,
      "fused_tanh" : 0,
      "debug_info" : "input.217",
      "pad_fill_mode" : 0,
      "pad_b" : 0,
      "pad_l" : 0,
      "top" : "input.218",
      "K" : 16,
      "blob_biases" : 329,
      "name" : "input.217",
      "has_batch_norm" : 0,
      "type" : "convolution",
      "n_groups" : 1,
      "pad_t" : 0,
      "has_biases" : 1,
      "C" : 16,
      "bottom" : "input.215",
      "weights" : {

      },
      "Nx" : 1,
      "pad_mode" : 0,
      "pad_value" : 0,
      "Ny" : 1,
      "n_parallel" : 1,
      "blob_weights_f16" : 331
    },
    {
      "pad_r" : 0,
      "fused_relu" : 0,
      "fused_tanh" : 0,
      "debug_info" : "A.1",
      "pad_fill_mode" : 0,
      "pad_b" : 0,
      "pad_l" : 0,
      "top" : "A.1",
      "K" : 16,
      "blob_biases" : 333,
      "name" : "A.1",
      "has_batch_norm" : 0,
      "type" : "convolution",
      "n_groups" : 1,
      "pad_t" : 0,
      "has_biases" : 1,
      "C" : 4,
      "bottom" : "input.218",
      "weights" : {

      },
      "Nx" : 1,
      "pad_mode" : 0,
      "pad_value" : 0,
      "Ny" : 1,
      "n_parallel" : 1,
      "blob_weights_f16" : 335
    },
    {
      "bottom" : "A.1,mean_x",
      "alpha" : 1,
      "operation" : 1,
      "weights" : {

      },
      "fused_relu" : 0,
      "debug_info" : "1155",
      "nd_mode" : true,
      "top" : "1155",
      "type" : "elementwise",
      "name" : "1155",
      "beta" : 0
    },
    {
      "bottom" : "mean_y,1155",
      "alpha" : 1,
      "operation" : 33,
      "weights" : {

      },
      "fused_relu" : 0,
      "debug_info" : "input",
      "nd_mode" : true,
      "top" : "input",
      "type" : "elementwise",
      "name" : "input",
      "beta" : 0
    },
    {
      "bottom" : "A.1",
      "target_size_w" : 1280,
      "spatial_scale" : 1,
      "weights" : {

      },
      "grid_sampling_mode" : 0,
      "debug_info" : "A",
      "target_size_h" : 720,
      "top" : "A",
      "type" : "crop_and_resize",
      "name" : "A",
      "crop_index_mode" : 0
    },
    {
      "bottom" : "input",
      "target_size_w" : 1280,
      "spatial_scale" : 1,
      "weights" : {

      },
      "grid_sampling_mode" : 0,
      "debug_info" : "b",
      "target_size_h" : 720,
      "top" : "b",
      "type" : "crop_and_resize",
      "name" : "b",
      "crop_index_mode" : 0
    },
    {
      "bottom" : "A,fine_x",
      "alpha" : 1,
      "operation" : 1,
      "weights" : {

      },
      "fused_relu" : 0,
      "debug_info" : "1163",
      "nd_mode" : true,
      "top" : "1163",
      "type" : "elementwise",
      "name" : "1163",
      "beta" : 0
    },
    {
      "bottom" : "1163,b",
      "alpha" : 1,
      "operation" : 0,
      "weights" : {

      },
      "fused_relu" : 0,
      "debug_info" : "1164",
      "nd_mode" : true,
      "top" : "1164",
      "type" : "elementwise",
      "name" : "1164",
      "beta" : 0
    },
    {
      "begin_104" : 0,
      "begin_63" : 0,
      "begin_59" : 0,
      "begin_64" : 0,
      "begin_105" : 0,
      "begin_65" : 0,
      "begin_0" : 3,
      "begin_70" : 0,
      "begin_66" : 0,
      "begin_106" : 0,
      "begin_110" : 0,
      "begin_2" : 0,
      "begin_71" : 0,
      "begin_67" : 0,
      "begin_68" : 0,
      "begin_107" : 0,
      "begin_111" : 0,
      "begin_4" : 0,
      "begin_72" : 0,
      "begin_73" : 0,
      "begin_69" : 0,
      "begin_6" : 0,
      "begin_74" : 0,
      "begin_108" : 0,
      "type" : "split_nd",
      "begin_8" : 0,
      "begin_112" : 0,
      "begin_75" : 0,
      "begin_10" : 0,
      "begin_80" : 0,
      "begin_76" : 0,
      "begin_109" : 0,
      "begin_113" : 0,
      "begin_11" : 0,
      "nd_axis" : 1,
      "begin_81" : 0,
      "begin_77" : 0,
      "begin_114" : 0,
      "begin_12" : 0,
      "begin_78" : 0,
      "begin_82" : 0,
      "begin_13" : 0,
      "begin_83" : 0,
      "begin_79" : 0,
      "begin_115" : 0,
      "begin_14" : 0,
      "begin_84" : 0,
      "begin_15" : 0,
      "begin_85" : 0,
      "begin_116" : 0,
      "begin_120" : 0,
      "begin_20" : 0,
      "begin_86" : 0,
      "begin_16" : 0,
      "begin_90" : 0,
      "begin_21" : 0,
      "begin_91" : 0,
      "begin_87" : 0,
      "begin_17" : 0,
      "begin_117" : 0,
      "begin_121" : 0,
      "begin_18" : 0,
      "begin_92" : 0,
      "begin_88" : 0,
      "begin_22" : 0,
      "begin_23" : 0,
      "begin_89" : 0,
      "begin_19" : 0,
      "begin_93" : 0,
      "begin_118" : 0,
      "begin_122" : 0,
      "begin_24" : 0,
      "begin_94" : 0,
      "begin_25" : 0,
      "begin_95" : 0,
      "begin_119" : 0,
      "begin_123" : 0,
      "begin_30" : 0,
      "begin_26" : 0,
      "begin_96" : 0,
      "begin_124" : 0,
      "begin_31" : 0,
      "begin_97" : 0,
      "begin_27" : 0,
      "begin_28" : 0,
      "begin_98" : 0,
      "begin_32" : 0,
      "begin_125" : 0,
      "begin_33" : 0,
      "begin_29" : 0,
      "begin_99" : 0,
      "begin_1" : 1,
      "weights" : {

      },
      "begin_34" : 0,
      "bottom" : "1164",
      "begin_3" : 0,
      "begin_126" : 0,
      "begin_35" : 0,
      "begin_5" : 0,
      "begin_36" : 0,
      "begin_40" : 0,
      "begin_127" : 0,
      "name" : "1166",
      "begin_41" : 0,
      "begin_37" : 0,
      "begin_7" : 0,
      "begin_42" : 0,
      "begin_38" : 0,
      "begin_9" : 0,
      "begin_39" : 0,
      "begin_43" : 0,
      "begin_44" : 0,
      "begin_45" : 0,
      "begin_50" : 0,
      "begin_46" : 0,
      "begin_51" : 0,
      "begin_47" : 0,
      "begin_100" : 0,
      "begin_52" : 0,
      "debug_info" : "1166",
      "begin_48" : 0,
      "top" : "1166:0,1166:1",
      "begin_101" : 0,
      "begin_53" : 0,
      "begin_49" : 0,
      "begin_54" : 0,
      "begin_55" : 0,
      "begin_102" : 0,
      "begin_60" : 0,
      "begin_56" : 0,
      "begin_103" : 0,
      "begin_57" : 0,
      "begin_61" : 0,
      "begin_62" : 0,
      "begin_58" : 0
    },
    {
      "bottom" : "1166:0,src",
      "alpha" : 1,
      "operation" : 0,
      "weights" : {

      },
      "fused_relu" : 0,
      "debug_info" : "fgr.1",
      "nd_mode" : true,
      "top" : "fgr.1",
      "type" : "elementwise",
      "name" : "fgr.1",
      "beta" : 0
    },
    {
      "bottom" : "fgr.1",
      "alpha" : 0,
      "operation" : 119,
      "weights" : {

      },
      "fused_relu" : 0,
      "debug_info" : "fgr",
      "top" : "fgr_internal",
      "type" : "elementwise",
      "name" : "fgr",
      "beta" : 1
    },
    {
      "bottom" : "1166:1",
      "alpha" : 0,
      "operation" : 119,
      "weights" : {

      },
      "fused_relu" : 0,
      "debug_info" : "pha",
      "top" : "pha_internal",
      "type" : "elementwise",
      "name" : "pha",
      "beta" : 1
    },
    {
      "bottom" : "fgr_internal",
      "alpha" : 255,
      "operation" : 1,
      "beta" : 0,
      "weights" : {

      },
      "fused_relu" : 0,
      "debug_info" : "1181",
      "top" : "fgr",
      "type" : "elementwise",
      "name" : "1181",
      "attributes" : {
        "is_output" : 1
      }
    },
    {
      "bottom" : "pha_internal",
      "alpha" : 255,
      "operation" : 1,
      "beta" : 0,
      "weights" : {

      },
      "fused_relu" : 0,
      "debug_info" : "1183",
      "top" : "pha",
      "type" : "elementwise",
      "name" : "1183",
      "attributes" : {
        "is_output" : 1
      }
    }
  ]
}